weights/gru_1000.pth (torch, 43555 bytes, 10 tensors)

gru.weight_ih_l0 f4 [96, 8]
000000 04 4f 36 be ff 91 99 3d 9c 20 99 3c 09 40 37 3e
       -0.1780358 0.0749855 0.018692307 0.17895521
000010 37 70 cd bc 7a d0 6e be ad c5 3e 3d 6b a6 b5 3e
       -0.025077922 -0.23321715 0.046575237 0.3547853
000020 94 ee 93 3e 81 3a db 3d 8c 2a 16 3f f9 e0 e0 3e
       0.28892958 0.10704518 0.5865867 0.4392164
000030 1f af a6 3e d2 51 1a be c4 d7 31 3e bf 2b a7 3e
       0.32555482 -0.15070274 0.17367464 0.32650563
000040 67 a8 4a 3e 47 3f dd 3e 9e b7 19 3d 6d 23 99 3e
       0.19790803 0.4321234 0.037528627 0.2990984
000050 52 de 9c 3e 49 83 2e 3e 35 54 c0 3e c7 15 92 3e
       0.30638367 0.17042269 0.37564245 0.2853224
000060 50 ed 6d 3e dc c6 7a 3e 91 f9 af 3d b6 1c 45 3e
       0.23235059 0.24489921 0.08592523 0.19249234
000070 ee 3b e8 bd 4f cd 57 bd a5 6f b8 3e 80 88 3c 3e
       -0.11339556 -0.052686032 0.36022678 0.18411446
000080 38 45 73 3e 83 de f3 3e 1b ac d0 3e 65 94 b4 3e
       0.23756874 0.476307 0.40756306 0.35269466
000090 8f 67 36 3e 47 e1 f0 3e 91 b4 4a 3e 41 22 c7 3e
       0.17812942 0.47046873 0.19795443 0.3889332
0000a0 ab 4a 39 3e 71 79 d0 3e 9e af 0c 3f 9e 59 21 3e
       0.1809489 0.40717652 0.5495547 0.15756842
0000b0 b9 32 7d 3d 01 12 69 bd a5 3f 10 3e 6f 65 87 3e
       0.06181595 -0.056901935 0.14086778 0.26444575
0000c0 ef ed 6d be 97 ff c0 bc 90 98 3d bb 6e 61 7c 3d
       -0.23235296 -0.023559375 -0.0028930046 0.061616354
0000d0 e3 1b 5b be 4d 61 34 3e b2 65 b5 be ea 28 57 3e
       -0.21397357 0.17615242 -0.3542915 0.21011701
0000e0 ff b8 eb 3c eb 69 df 3e ab 6c 69 3a 45 80 af 3e
       0.028774736 0.43635496 0.00089044374 0.3427755
0000f0 8d 3f 25 be 94 69 55 bc 6c d5 c0 bc f4 9f c7 3e
       -0.16137524 -0.01302566 -0.023539267 0.38989222
000100 4b e6 68 be c0 f1 d2 3c 2c 9b 8e 3e 0d 2d 98 be
       -0.227441 0.025750041 0.27852762 -0.2972187
000110 5a 3c 69 be 21 e2 6b 3c 74 bc 82 3e fb 98 7e be
       -0.22776929 0.014397175 0.25534403 -0.24863045
000120 a0 ed 01 3e d2 68 cb 3d 2b fa a2 3d 1d 6f bd 3e
       0.12688303 0.09932102 0.07957872 0.36998835
000130 6b b2 3e 3e f0 4b 17 bd 80 26 84 bc f2 a6 d3 3e
       0.18622749 -0.036937654 -0.01613164 0.41338307
000140 5a 55 53 3d 97 71 96 3e 6e 24 a7 3e b1 b3 1a 3e
       0.05159507 0.29383537 0.3264498 0.1510761
000150 62 bd 78 3e 92 5e 5b 3e 03 61 38 3e 70 cc bf 3d
       0.24290994 0.21422794 0.18005757 0.09365165
000160 43 c7 79 3e ca 7f 4a 3e de fb 12 be 14 e5 3f bd
       0.24392419 0.1977531 -0.14353892 -0.046849325
000170 7f d6 bc bc dc 41 9f 3d f5 fc 6a be a6 99 59 3e
       -0.023051498 0.077762336 -0.22948058 0.21250018
000180 32 0d 89 3d 3a fc b3 bc e2 3f 09 3e b1 b8 a3 be
       0.0669197 -0.021970857 0.13403276 -0.31976846
000190 30 8e 14 be 32 d6 a8 3c 40 5d 5c 3e 21 f8 35 bd
       -0.14507365 0.020609949 0.21519947 -0.044426087
0001a0 bc f7 f2 3d 8b c1 bd 3d 96 7b 62 3e ac e0 b2 3e
       0.11863658 0.09265431 0.22117457 0.34937036
0001b0 60 74 79 3d da a5 81 3d ef a5 8b 3e 8d 02 91 bc
       0.060902 0.06330462 0.27275035 -0.017701412
0001c0 80 f2 9d 3d df 4e eb 3d 39 14 fb 3e b4 85 fb 3e
       0.07712269 0.11489653 0.49038866 0.49125445
0001d0 a2 25 13 be eb c6 0d 3e 0a a4 81 3e 6a ba e0 3e
       -0.14369825 0.13845412 0.25320464 0.43892223
0001e0 f5 c4 43 3d a2 af 6a 3c 1b d9 46 be 8f 30 60 bb
       0.047795255 0.014324101 -0.19418757 -0.003420863
0001f0 be f0 2c 3d 2c 24 eb 3d d7 78 86 be cf 14 98 3e
       0.042221777 0.114815086 -0.26264068 0.29703376
000200 79 6b 14 bc 5d 11 c4 3e 76 f0 db 3e 28 c3 ae 3d
       -0.009058827 0.38294497 0.42956895 0.08533317
000210 fa 64 8a 3d a4 4e d5 3e 53 f3 22 3e ae 07 9a 3d
       0.06757541 0.4166156 0.15913133 0.07520996
000220 6e 07 16 bf ba e0 bb 3d ab 3c c5 bd f2 3e 15 3e
       -0.58605087 0.091737226 -0.09630712 0.14574793
000230 36 2f 14 3d 24 4d 42 be 50 8d 13 be 50 dd 08 bd
       0.036177836 -0.1897474 -0.14409375 -0.033414185
000240 64 38 12 3e 8c dc d3 3e 0e a0 56 3e 78 c1 5e bc
       0.14279324 0.413792 0.20959494 -0.013595931
000250 37 b0 db bd 24 8f 81 be 0d af c8 3e a8 4b 94 3d
       -0.1072697 -0.2530452 0.39196053 0.07240993
000260 07 19 85 3d 22 d6 0c bd fe 9e 05 3d f2 87 0e 3e
       0.06498914 -0.0343839 0.03262233 0.13919047
000270 0a 09 47 be 49 0e 11 be f2 c7 81 3e b6 de 33 3e
       -0.19437042 -0.14165606 0.2534786 0.17565426
000280 bd 22 22 3d 5c 56 04 3e b8 23 80 3e 7a e8 99 3e
       0.03958391 0.12923568 0.2502725 0.30060178
000290 d6 f3 36 bd 09 77 43 be 73 16 9e bd d7 83 c3 3e
       -0.044666134 -0.19088377 -0.077191256 0.38186523
0002a0 a3 d3 b5 bd 24 34 6e 3e b4 21 11 be 73 ae 81 3e
       -0.08878257 0.23262078 -0.14173013 0.25328407
0002b0 2f 9e 14 3e 0a 88 5a 3d 3b 7a 1b 3e f3 cb 8f 3d
       0.14513467 0.053352393 0.15183346 0.07021322
0002c0 71 80 a5 3e 45 54 a7 3e 2f 0d b0 3d 7d ff e5 3e
       0.32324556 0.3268148 0.085962646 0.44921485
0002d0 6a d4 99 3e 69 e2 a7 be 1a a6 9e 3e 31 9d 5e be
       0.30044872 -0.32789925 0.309861 -0.21739651
0002e0 3d 7d ea bd 4d d3 a8 bc e6 41 25 be 93 eb 28 be
       -0.114496686 -0.020608569 -0.1613842 -0.16496114
0002f0 dd 6f c8 bd 2d e2 6a 3e 2b 71 4b 3c b9 65 87 be
       -0.09786961 0.22937842 0.012417118 -0.26444796
000300 8f 1b c1 3e e1 d1 86 3d 8b 69 29 3e d2 06 bc 3e
       0.37716338 0.06583 0.16544168 0.36723953
000310 fe 56 b1 3e 72 9d ae 3b ee 2e 82 3e 19 69 25 3d
       0.34636682 0.0053288275 0.2542643 0.040383432
000320 c2 f6 01 3e 74 b9 e0 3b d1 b3 8c bd 4a 63 6d 3e
       0.12691787 0.0068580452 -0.06870235 0.23182407
000330 f7 4c b2 3e 3c 41 ae 3e e1 f4 f1 bc 16 82 36 3e
       0.34824345 0.34034145 -0.029535713 0.17823061
000340 7d 39 99 bc 5c 08 95 3c 11 ed c2 bd 89 22 10 3e
       -0.01870417 0.018192463 -0.09517873 0.14075674
000350 a3 82 ab bd 24 45 ea 3d f2 87 e3 3e 88 f1 a6 be
       -0.08374526 0.11438969 0.44439656 -0.3260615
000360 5a aa 0f 3f 5e 23 40 bd 66 3b 35 3e 19 96 f9 be
       0.5611931 -0.04690873 0.1769844 -0.48747328
000370 8e 18 93 3e 2d d7 d7 bc 64 5f f1 3d 49 2b 73 3d
       0.2872967 -0.026347721 0.117857724 0.05936745
000380 1e 4f 14 bd 61 0b c1 bb ef 47 cb 3d 5e dd 9b be
       -0.036208265 -0.005891249 0.099258296 -0.30442327
000390 79 22 a3 3e bc 66 a2 3e 17 12 26 3e fa c5 0b 3e
       0.31862238 0.31719005 0.16217838 0.13649741
0003a0 26 96 88 3e 38 63 68 3c 5e 65 a6 3e 12 ea 5f 3e
       0.26677054 0.014183812 0.32499212 0.21866634
0003b0 1a 8b 81 3e be fd 41 3e e7 fa 64 3e ea 8c 8c 3e
       0.2530144 0.18944451 0.22361337 0.2745126
0003c0 66 00 77 3e 8c a0 f4 3e 32 26 50 bd 4d 31 b4 3e
       0.24121246 0.47778738 -0.050817676 0.35193864
0003d0 65 2d d2 bd b1 9e 0a be b3 18 af 3e 7a 17 7f 3e
       -0.102625646 -0.13537098 0.34198532 0.249113
0003e0 2a ca ec bd bc fc 5a 3e 3d aa 2e 3e 89 34 7f bb
       -0.11561997 0.21385473 0.17057128 -0.0038941226
0003f0 7f ed d4 3d 00 87 82 3d 45 68 15 3d 42 55 34 bd
       0.10396861 0.063734055 0.036476392 -0.04402662

gru.weight_hh_l0 f4 [96, 32]
000000 b3 7f 6e 3d a8 09 9c 3c 8e 54 67 be 8f 26 d0 bd
       0.058227252 0.019047573 -0.22590849 -0.101636045
000010 bc e6 7a bd 8e 52 7b bd 34 4b 1d 3e a2 c6 3f be
       -0.0612552 -0.061358027 0.15360719 -0.18728116
000020 2b 2e b5 3d 54 19 9f be 58 4f c3 bd d1 2f 9c be
       0.088466965 -0.3107401 -0.09536618 -0.3050523
000030 c4 46 94 bd d8 9d 2d 3d e6 a8 05 be f7 25 8b 3e
       -0.0724006 0.04238686 -0.13052711 0.27177402
000040 79 41 21 3d 94 b3 9f bd a3 16 06 3d f6 19 c0 bd
       0.03936908 -0.07797924 0.03273643 -0.09379952
000050 46 17 21 3e 17 fc 89 3e 48 55 60 be 46 e4 47 3e
       0.15731534 0.26950142 -0.21907532 0.19520673
000060 30 6c f1 bd b4 1f 90 3e 60 66 0b 3e a9 0b 0c be
       -0.11788213 0.28149188 0.13613272 -0.13676323
000070 cd 6d 43 bc e5 fc 8d 3d b7 65 69 3c c4 8e 8c 3e
       -0.011928034 0.069330014 0.014245442 0.27452672
000080 e5 fc 2d 3e a2 59 cd bb da d7 24 bf 7a 0d f6 3e
       0.16991003 -0.0062667886 -0.64391863 0.48057157
000090 d9 f1 b5 be 8b ee 01 3e ec 2f ec 3e 2a d8 da be
       -0.35536078 0.12688653 0.4613031 -0.42743045
0000a0 64 9d d0 be 79 fc 3c be dc 5f 70 be a7 df ea 3e
       -0.4074508 -0.18455686 -0.23474067 0.45873758
0000b0 2a c7 f6 bd 03 73 09 3f c9 5e cb be d0 60 fb 3e
       -0.12049706 0.5369112 -0.39720753 0.490973
0000c0 18 65 f3 3e 0c b8 03 3f 8f 60 c4 3e 4c 5a 00 3e
       0.47538066 0.5145271 0.38354918 0.12534446
0000d0 15 4c b4 3e 2d e8 42 3f b3 f0 0e 3f 54 5d a9 3e
       0.35214296 0.7613552 0.5583603 0.33079016
0000e0 85 01 a3 be e3 08 f9 3e 0a 55 c8 3e 31 81 1d 3f
       -0.31837097 0.48639593 0.3912738 0.61525255
0000f0 84 fe e7 be 1e fa c7 3e 36 b3 15 bf 1d 33 7b 3e
       -0.45311368 0.39058012 -0.5847658 0.24531217
000100 ad 09 e0 be 50 77 8b 3e b8 c9 31 3e 0b 61 33 3e
       -0.43757382 0.27239466 0.17362106 0.17517488
000110 82 2e 6a be f7 de bd 3e 1e 15 5b 3f 79 93 a4 bd
       -0.22869304 0.3708417 0.855791 -0.08035941
000120 e0 3f 8b be 2c b8 00 3f 74 b5 a6 be 88 d6 48 bf
       -0.2719717 0.50281024 -0.32560313 -0.7845235
000130 22 52 83 be 5d 94 af 3d 2c c7 bf be 61 3d 5a bc
       -0.256486 0.0857322 -0.37456644 -0.013320298
000140 a6 ec 13 bf 86 a7 31 be a4 18 c1 3d a3 d2 32 be
       -0.5778297 -0.17349061 0.09428528 -0.17463164
000150 34 2b 37 3e c5 0e 13 3f ed 61 98 3f d1 b7 3e 3e
       0.17887574 0.5744441 1.1904885 0.18624808
000160 6e af 67 3e e1 d1 64 be a1 d9 24 3f 4f 84 9d 3e
       0.22625515 -0.22345687 0.64394575 0.30765006
000170 83 8d cb 3e dc 8a 87 be e6 06 d7 be ea 95 ae 3e
       0.39756402 -0.2647313 -0.4199745 0.3409875
000180 34 5f bf bd db 2b ca 3e 5f af b9 bd d5 22 8a 3e
       -0.093443304 0.39486584 -0.090666525 0.269797
000190 cb 1e a5 be ce 6b 3a 3e fe 96 ed 3d 51 81 80 be
       -0.32250056 0.18205187 0.11601065 -0.2509866
0001a0 9f f0 f9 3b 44 49 7b be 91 62 a4 3c c2 c0 9b be
       0.007627561 -0.24539667 0.020066531 -0.304205
0001b0 a6 87 42 bb 6d 4c 53 bd 2b ed 8e bd 15 cb 58 3e
       -0.0029682904 -0.051586557 -0.0697883 0.2117122
0001c0 44 e4 c1 3d cc 76 76 bc 39 e1 2b bd 54 a5 73 3e
       0.09467366 -0.015042972 -0.041962836 0.23793536
0001d0 a9 40 0e 3e 71 cd 02 3e 95 fb 0d 3f a7 01 ec 3d
       0.13891853 0.12773682 0.5546201 0.11523753
0001e0 d4 f3 c8 3e a4 2c 9c be cd 23 4d 3e 8e d4 29 be
       0.39248526 -0.30502808 0.20033188 -0.1658499
0001f0 76 b9 8a 3e 1d 41 12 3e 2d 93 61 3e 04 8c 30 3e
       0.2709462 0.14282651 0.220288 0.17240912
000200 4d f4 25 3e 4f 25 ab be 14 89 61 be 42 f8 d2 3e
       0.16206475 -0.33426902 -0.22024947 0.4120503
000210 8b 45 cb bd c4 4a a4 3e cb 1a b1 3d fa 25 4d be
       -0.09925374 0.32088292 0.086476885 -0.20034018
000220 32 db 3f be e0 1c 8f be 41 b4 c9 bc 19 fe 34 3d
       -0.1873596 -0.27951717 -0.024622085 0.04418764
000230 59 44 8a be 08 79 b0 3e be 4c fb bd e7 e5 a3 3e
       -0.2700527 0.3446734 -0.12270497 0.3201134
000240 ee 83 40 be 0e f4 e9 3d 65 0f 92 bd 07 0b 7e 3d
       -0.18800327 0.11423503 -0.071318425 0.062022235
000250 49 1b ce 3e c6 da 15 3e 80 c2 0f 3f e1 1b 98 3e
       0.40255192 0.14634237 0.5615616 0.2970877
000260 28 12 86 be e5 b3 9a 3e 42 1a e0 3e c7 0a 87 3b
       -0.26185727 0.30215374 0.43770033 0.004121158
000270 7e ee 37 3d 8e 23 d5 3e 2d b6 d3 3d c2 e8 f2 3d
       0.04490518 0.4162869 0.10337482 0.11860801
000280 17 b1 9d 3e 02 d5 5e 3b 95 d0 ae be 80 f1 96 3e
       0.3079917 0.0034001474 -0.3414351 0.29481125
000290 e4 14 50 be 21 77 f5 be 4a 33 83 3d 73 e7 93 bd
       -0.20320469 -0.4794245 0.06406267 -0.0722188
0002a0 2a e7 1e be 5f 08 48 bd 91 e3 23 be 66 09 ee 3e
       -0.1551787 -0.04883611 -0.16004778 0.46491545
0002b0 b3 75 12 be 22 e7 81 3d 47 9c 6e be d8 3a 9f 3e
       -0.14302711 0.06342913 -0.23301803 0.31099582
0002c0 b6 17 4d 3f 4b 4c d4 3d 4e 24 14 bf 05 61 1e 3f
       0.80114305 0.10366114 -0.57867897 0.6186679
0002d0 e9 2a c1 3b 65 75 67 3e 16 5c c5 3d 3e d0 88 3e
       0.005895008 0.22603376 0.096367046 0.26721376
0002e0 bb 03 07 be 62 e1 45 3e dd a7 a5 3e 39 36 87 3d
       -0.13185017 0.19324258 0.32354632 0.06602139
0002f0 a9 0c 2b be 66 46 be 3e 30 55 63 3e 2b 07 54 3e
       -0.16704048 0.37163085 0.22200465 0.2070586
000300 2e 33 5f be 48 1c 86 3c 00 88 1e 3e dd 1e 75 bc
       -0.21796867 0.016370907 0.15481567 -0.014960972
000310 49 c9 d9 bd 8e 28 a3 3c 06 8f 86 3e 7a 94 08 bd
       -0.10634095 0.019916799 0.26280993 -0.033344723
000320 26 d4 02 3e e2 bb a8 3c 38 3e 83 3c e8 61 23 bf
       0.1277624 0.020597402 0.01602088 -0.6382127
000330 37 d1 72 be fd e5 15 3e a1 30 de 3b d7 cf ed 3d
       -0.23712622 0.14638515 0.0067806994 0.11611908
000340 54 64 de bd 15 9f ed bd c0 8a 4f be 50 07 01 bd
       -0.1085898 -0.11602608 -0.20267773 -0.031501114
000350 5e 00 ac 3c 31 c6 b2 bd ec 7e 2f 3e a5 c2 df 3d
       0.020996269 -0.08729208 0.1713826 0.109257974
000360 f6 e2 4c 3e 47 5f 03 3e 93 56 22 3e ca ae 10 be
       0.20008454 0.12829314 0.15853338 -0.14129177
000370 ae ab 40 3e e0 f7 70 be 32 a2 a1 3d 7e 0c ec 3c
       0.1881549 -0.23532057 0.078922644 0.02881455
000380 b3 17 9c 3d c3 8b ed 3d 83 d7 e5 bd 47 6a 18 3e
       0.07621708 0.11598923 -0.11222746 0.14884292
000390 75 1e 50 be 97 f7 3c 3e b3 c8 f9 3e aa a3 63 be
       -0.20324118 0.18453823 0.48785934 -0.22230402
0003a0 dc 1b 43 3c 4e 31 80 3c 69 e9 ae be 7e 02 8c be
       0.011908498 0.01564851 -0.34162453 -0.2734565
0003b0 f3 c3 f1 bc 07 2f ce 3d 5a d7 23 3d 17 34 93 bd
       -0.029512381 0.100675635 0.040000297 -0.0718767
0003c0 00 a8 24 3e 17 41 ed 3d 2b 52 2b bc c4 cd 93 bd
       0.16079712 0.115846805 -0.010456602 -0.07216981
0003d0 c1 7e 6d 3e 4a bc b5 3d 29 fe 49 3e 4e e1 40 3d
       0.23192884 0.08873804 0.1972586 0.047089867
0003e0 e0 19 8f be f4 a7 7b 3e 15 14 a6 3e e9 ca c7 3c
       -0.2794943 0.24575788 0.32437196 0.024388747
0003f0 58 14 e0 3d 1a 22 30 3e cf 93 a9 bd f3 8e ba 3c
       0.1094138 0.17200509 -0.082801454 0.022773242

gru.bias_ih_l0 f4 [96]
000000 18 1d 42 3e 78 e5 7a 3e f2 bc 09 3e 8e 31 bc 3d
       0.18956411 0.24501598 0.13450983 0.09189139
000010 4e c6 d3 3d 89 6d 22 3e 05 f8 fb bd 49 7d 92 3d
       0.10340558 0.15862097 -0.12303165 0.071528025
000020 67 d5 53 3d 19 84 4e 3e d0 a3 26 3e 78 11 bd 3d
       0.05171719 0.20167579 0.16273427 0.092318475
000030 ea 8a 17 3e d5 09 54 bd 3d aa da bb 0b 6b dc 3d
       0.14799085 -0.05176719 -0.006673126 0.10762604
000040 8e c9 0f 3e 68 66 39 be 44 51 a3 3e 4f 12 c2 3d
       0.14041731 -0.18105471 0.31897938 0.09476148
000050 a6 d7 2c 3e 38 8f 12 3e a5 df 81 3e 17 9d 38 3e
       0.16879138 0.14312446 0.2536594 0.18028675
000060 73 93 10 3e 77 a5 f8 bd 3a b7 c4 3c 45 1f f5 3d
       0.14118747 -0.12140935 0.02401315 0.11968855
000070 75 12 7c 3e f5 2b 9c 3b 91 71 8b 3e 39 a7 4e 3e
       0.24616416 0.0047659823 0.27235082 0.20180978
000080 38 74 d5 bd 9b da 09 bf 6c a5 a5 bd 00 ae 74 bb
       -0.104225576 -0.5384919 -0.08088192 -0.0037335157
000090 bd ff e0 be c9 35 91 be f2 fa 51 be cb d8 3e bd
       -0.43945113 -0.28361347 -0.20505884 -0.04659347
0000a0 19 fd 4a bd a4 b4 31 be 04 0c 7b be a0 3e 99 be
       -0.04955778 -0.17354065 -0.24516302 -0.29930592
0000b0 c3 8a 95 be f9 9e 69 be 6f ae ad be 87 d1 2e bd
       -0.2920743 -0.2281455 -0.33922145 -0.04268029
0000c0 07 ab 7d be 60 d8 0f be 97 e5 18 be 38 55 f8 bc
       -0.24772273 -0.14047384 -0.14931332 -0.030314073
0000d0 10 74 22 3e 88 c0 11 bf 35 79 aa 3d f5 5d fc 3d
       0.15864587 -0.56934404 0.083239 0.123226084
0000e0 ef 38 97 be 96 e7 77 bc 0e 1d cd be 10 d5 94 be
       -0.29535624 -0.015130898 -0.4006123 -0.29068804
0000f0 ce f2 d0 be b7 f6 47 bd cc a2 d1 bd 78 3c 82 3c
       -0.40810245 -0.04881927 -0.10236129 0.015897974
000100 80 6f c3 bd 61 fb 6c bc 75 ee f9 bd c4 41 91 3d
       -0.09542751 -0.01446423 -0.12203685 0.07092622
000110 20 c9 fc bd d7 d6 00 be af 13 20 3e 3a a2 1f be
       -0.12343049 -0.12581955 0.15632509 -0.15589228
000120 04 10 8f 3d fb bc 75 3e da c9 ee 3d a7 1e 26 be
       0.069854766 0.23997872 0.11659594 -0.1622263
000130 6c 70 16 3e 45 f0 22 3e 78 f2 5d be 8d ae 25 3e
       0.14691323 0.15911968 -0.21674526 0.16179867
000140 cf 71 f2 3d 4e 67 03 3d 1b 27 c8 bd b2 80 fe 3d
       0.118381135 0.03208094 -0.09773084 0.124268904
000150 af ee 34 3e 08 29 64 bd ad f1 bf 3d 82 01 16 3e
       0.17669176 -0.055703193 0.09372268 0.14649013
000160 91 20 56 3c 31 d3 49 3d 22 81 42 3e fe f0 2d 3e
       0.013069288 0.049273673 0.18994573 0.16986462
000170 5f 44 31 3e 3d cd 0e be 49 c0 2b bb 34 a0 3f 3e
       0.17311238 -0.1394548 -0.002620714 0.18713456

gru.bias_hh_l0 f4 [96]
000000 b1 8e 62 bd dd e9 07 3f 75 7f 75 3e 06 57 de bd
       -0.055311862 0.5309122 0.23974402 -0.10856442
000010 fe f5 ba 3e 91 87 16 3e 06 e7 cf bd 42 48 7e 3e
       0.36515802 0.14700152 -0.10151486 0.24832252
000020 30 53 98 3d ff d8 0c 3e fd bd c8 3e 77 50 f4 bd
       0.07437742 0.13754652 0.3920745 -0.1192941
000030 73 05 04 3e 73 72 48 3c dd 30 13 3e 36 0f 25 be
       0.12892704 0.012234318 0.14374109 -0.16119084
000040 0e b2 bc 3e 2f 18 4c 3d 21 58 1b 3e 1d de 7a 3e
       0.36854595 0.04982775 0.15170337 0.24498792
000050 85 5a 36 3e 02 20 8d 3e 63 cb d9 3c 58 39 08 bd
       0.17807968 0.27563483 0.02658624 -0.033257812
000060 f5 13 92 3e 4f 5d 17 3e 1b 42 28 be 35 3e 5b 3e
       0.2853085 0.14781688 -0.16431467 0.21410449
000070 1b f7 71 3d 44 da 56 3e cf 5e 9e ba 69 79 05 3e
       0.05907355 0.20981699 -0.0012082699 0.13034596
000080 c9 86 23 3e d7 7f f8 be 43 bf 9b bd 1f 97 84 be
       0.15969385 -0.48535034 -0.0760484 -0.25896546
000090 6f 78 68 be 5d a5 ad be 6f 72 cb bd 6f c5 a5 be
       -0.22702192 -0.33915225 -0.09933936 -0.32377192
0000a0 3b e7 5f be e8 a5 a2 be ef f4 9f be f5 17 d5 bd
       -0.21865551 -0.317672 -0.31241557 -0.1040496
0000b0 9a 1c 8b be 7c d8 88 bd b1 13 80 be 32 1f 88 be
       -0.2717026 -0.06681916 -0.25015023 -0.265863
0000c0 d9 95 2f be 38 64 06 be 98 7d fd bd 66 61 6e 3d
       -0.17147006 -0.13124168 -0.12377471 0.058198355
0000d0 c2 d1 98 3d 32 38 13 bf 34 35 8d bb fe 65 31 3e
       0.07461883 -0.5750762 -0.004309321 0.17324063
0000e0 64 3c 69 be 89 c6 ca bb 77 c5 57 be c2 d1 59 be
       -0.22776943 -0.006188218 -0.2107142 -0.21271423
0000f0 14 a9 01 be 9a 06 3c be cc 64 c9 bd ba ea 57 3d
       -0.12662154 -0.18361893 -0.098336786 0.052714087
000100 81 6f ec 3c c2 50 f8 bd 24 c9 08 3d 2e 88 f4 3b
       0.028861763 -0.12124778 0.033394948 0.007462523
000110 e4 9f 4c be 61 43 56 bd 01 4b 26 3e eb 86 9e bd
       -0.19982868 -0.05231035 0.16239549 -0.07740577
000120 d5 77 a9 3c 44 0b b2 bd d8 54 c8 bd 48 4f be 3d
       0.020687023 -0.08693555 -0.09781808 0.092924654
000130 91 05 31 bd eb 24 17 3d 20 1b 26 be 73 4e 3e be
       -0.0432182 0.036900442 -0.16221285 -0.18584614
000140 8f 34 5f 3e a1 7f 6e bd 02 79 ca bc be 37 2f be
       0.21797393 -0.058227185 -0.024715904 -0.17111108
000150 d9 61 20 be fa 03 6f bd 0d db e0 3d 0c a8 15 be
       -0.15662326 -0.0583534 0.109792806 -0.14614886
000160 23 18 af bd 20 a2 1c 3e 63 a0 37 3e e3 58 e3 bd
       -0.085495256 0.15296221 0.17932276 -0.11100938
000170 16 4a 53 3e f9 17 2a be 1d 6e 40 be 3b d7 95 3c
       0.2063373 -0.16610707 -0.18792005 0.018291106

gru.weight_ih_l1 f4 [96, 32]
000000 e3 24 8d be 17 49 ce 3d 01 9e c3 3b f1 78 c2 bc
       -0.27567205 0.100725345 0.0059697633 -0.02373931
000010 48 3d 32 be 36 cb 12 3d 1b d9 33 be d0 d6 28 be
       -0.1740619 0.03583833 -0.17563288 -0.16488194
000020 4f a1 7a bd 85 73 96 3d 7c 58 d7 be a7 73 de 3d
       -0.061188992 0.07346252 -0.42059696 0.10861903
000030 22 82 5d be ab 9b eb 3d 42 7f 38 3e 42 39 80 3e
       -0.21631673 0.11504301 0.18017295 0.25043684
000040 e1 c6 ae 3e de d6 34 3e 56 50 04 bc 8d 46 46 be
       0.34136108 0.1766009 -0.008075794 -0.1936285
000050 d4 f5 bd bc ee 36 93 bd 6b 5a 5a be 5c 15 a0 3d
       -0.023188509 -0.071882114 -0.21323554 0.07816574
000060 06 80 25 3e 54 70 2e bd 24 11 d0 3d 7a c4 19 3e
       0.16162118 -0.042587593 0.10159519 0.15016356
000070 7b 7b 95 be a5 6a ba 3d c3 12 08 3d da a4 63 3e
       -0.2919577 0.09102372 0.033221018 0.22230855
000080 61 2e 8f bc 3f 12 3f 3d 5f 7b 8a 3e 1d a8 c5 3c
       -0.01747817 0.04664826 0.2704725 0.024128014
000090 22 f6 97 be f6 99 a0 3d 28 6f f8 3e ad a8 f2 bd
       -0.29679972 0.07841866 0.48522305 -0.118485786
0000a0 15 e2 14 be 20 29 81 bd e0 b7 e2 3d fb 65 a8 be
       -0.14539368 -0.06306672 0.110702276 -0.32890305
0000b0 ed 2c bf 3e 7d ec db 3e b4 fb 04 bf 27 57 75 be
       0.37338963 0.42953864 -0.5194657 -0.23959027
0000c0 4f a5 31 3f 08 21 49 3e 19 28 ab 3e 82 49 83 3e
       0.69392866 0.19641507 0.3342903 0.2564202
0000d0 fa 2b 2a 3e e5 47 72 3e 37 d3 94 3e 9e 14 9d 3e
       0.16618338 0.23660238 0.29067394 0.30679792
0000e0 57 da b3 3e 30 a0 2d 3e 6d 35 56 3e 57 13 1a 3f
       0.35127518 0.16955638 0.20918818 0.6018576
0000f0 33 ad f5 3e b4 13 5f 3d 81 ab 31 bf 12 6f 9f 3d
       0.47983703 0.05446215 -0.6940232 0.07784857
000100 a1 57 a1 be 72 6f 2f bf f6 19 17 3e 8e b3 88 3c
       -0.31512168 -0.6852943 0.14755997 0.01668718
000110 58 18 f8 bd 1b f6 a1 bd f2 1b f0 3e b0 09 93 bd
       -0.12114018 -0.07908269 0.4689632 -0.07179582
000120 08 6a 3f be 77 4c 57 3e b8 6a 60 3d 90 77 e2 bc
       -0.18692791 0.21025263 0.054789275 -0.027644902
000130 4f 8f 12 3e 2d bb 35 bd cc 56 84 be d5 34 91 bd
       0.1431248 -0.044367958 -0.2584747 -0.07090155
000140 f4 b9 5d 3e 46 5d 98 bd 3b f4 5c 3e d1 cd 2f 3e
       0.21652967 -0.074396655 0.21577542 0.17168356
000150 4f 29 10 3e 37 b0 46 3f 1e 9b 0c 3f 60 3d 47 3e
       0.14078258 0.7761263 0.5492419 0.19457006
000160 2e a2 1b be 7d b8 02 3f 09 e4 de 3e 83 63 9b 3e
       -0.15198585 0.51062757 0.43533352 0.3034936
000170 e6 4b ba 3e 2f 18 f5 3c d2 59 2c bf 63 64 2f 3c
       0.3638603 0.029918758 -0.67324555 0.010705086
000180 fa bd be 3c 35 20 59 3e b0 8e 6a bd cc 85 39 bd
       0.023283947 0.21203692 -0.057264984 -0.045293614
000190 86 e0 8a be d6 b2 50 be 9e 75 5c be 24 77 e4 bd
       -0.27124423 -0.2038072 -0.21529242 -0.11155537
0001a0 67 b3 7e 3d 32 d5 72 bf f6 ac 11 3f 0c 2a 0e 3b
       0.06218281 -0.9485656 0.5690454 0.0021692542
0001b0 01 bd a6 bd a6 cd 40 3e 97 f0 23 bf d4 37 0e 3e
       -0.081415184 0.18828449 -0.64038986 0.13888484
0001c0 f0 43 4d 3e 67 de 9c bd ce c7 e4 3e 87 7b 28 3e
       0.20045447 -0.076596074 0.4468369 0.16453372
0001d0 1b 93 3b bc e2 a9 84 be 33 87 dc be af 10 99 3c
       -0.011448647 -0.2591086 -0.430719 0.018684713
0001e0 50 79 65 3f 9d 64 ef 3c 4b 04 0a be 3c f0 f4 3d
       0.89638233 0.02922278 -0.134782 0.119598836
0001f0 38 ed dd bc dd d6 79 3e 4b 7a ed 3d 47 07 74 3d
       -0.027090654 0.2439837 0.11595591 0.059577253
000200 0f dd 70 3e 29 7b 20 3e 5d a6 b4 3b d7 c5 9b 3d
       0.23521827 0.15671982 0.005512996 0.07606094
000210 c8 c9 fa bd e5 2f d2 3d d0 80 47 3e 4c 0d 37 be
       -0.12245518 0.102630414 0.19482732 -0.17876166
000220 3d 37 d0 bd b2 1a d2 bc 14 17 76 3d 4c 30 dd 3c
       -0.10166786 -0.025647495 0.060080603 0.027000569
000230 76 03 77 be f5 c8 82 3e 02 81 0c be bd 92 cd bd
       -0.24122414 0.25543943 -0.13721088 -0.10037754
000240 43 f8 29 bd c4 ca 6a 3e 00 ce 4c bd 70 d4 84 3e
       -0.041496526 0.22928911 -0.050001144 0.25943327
000250 b2 ec a2 3d 5d 03 09 3e e2 80 07 be b3 17 70 3e
       0.07955302 0.13380189 -0.13232759 0.2344654
000260 3b cf 89 3e 78 d2 64 3e e7 16 bd 3e e4 12 53 bd
       0.26915917 0.22345912 0.36931536 -0.051531687
000270 31 0b 87 3e d9 79 a6 3d de a7 6f bd 14 87 0d 3e
       0.26375726 0.08128709 -0.0585097 0.1382106
000280 b9 d8 45 3e ac 1c fe 3d ce 33 fd bd 8c 41 4a 3e
       0.19320954 0.124078125 -0.123633966 0.19751567
000290 45 4b 60 be 9c 1c a3 bd c2 51 a0 bb 20 c4 b9 be
       -0.21903713 -0.07964441 -0.004892559 -0.36282444
0002a0 29 79 97 bd d5 05 d3 bd 17 a0 4c bd a4 a5 9f be
       -0.07396156 -0.10303847 -0.04995736 -0.3118106
0002b0 bd ed f7 3a 65 f6 72 3e 77 4a 98 be ec 33 0e 3d
       0.0018915456 0.23726805 -0.29744312 0.034717485
0002c0 d5 cc b8 3d c1 66 ed 3d 4b 6d 8b bd 28 29 51 3d
       0.090234436 0.115918644 -0.06807955 0.05106464
0002d0 ce 94 97 3e 60 a2 4a 3e 84 00 07 be 18 de ca 3e
       0.29605716 0.19788504 -0.1318379 0.3962257
0002e0 94 97 de 3c 29 84 71 3c 18 17 9d 3e 70 22 c2 3c
       0.027171887 0.014740982 0.30681682 0.023698062
0002f0 b4 8f 96 3d 7e 83 75 3d 71 28 a1 bd 4f a4 8a 3e
       0.07351628 0.059939854 -0.07869042 0.27078483
000300 c1 a6 d4 3d e7 0a 2e bc fd 44 c5 3d a2 7a 03 3e
       0.10383368 -0.0106227165 0.09632299 0.1283975
000310 d9 d9 c6 3d 67 e1 da 3e b0 70 38 3d 17 ca 06 3e
       0.0970952 0.42750093 0.045029342 0.13163029
000320 cf 02 ae bd d0 2d 98 3e 0d 73 01 bf a6 e9 d2 3e
       -0.084966294 0.29722452 -0.5056618 0.41193885
000330 2a ee d2 3d 5c cf 50 bd b3 ce b9 3e 40 af a4 bd
       0.102993324 -0.050979003 0.3629051 -0.08041239
000340 81 53 77 3e 30 9a 58 3e 9f 60 57 be 22 6c 7f 3d
       0.24152948 0.21152568 -0.21032952 0.062358983
000350 1a b4 d0 bd e0 64 18 3f 9a e6 92 3e 72 2d cd bc
       -0.10190602 0.59528923 0.2869156 -0.025046084
000360 0e 40 9f be 99 c2 b2 bc ad f2 84 3e 4f 67 93 bd
       -0.31103557 -0.021821307 0.25966397 -0.07197439
000370 29 ab 57 bd ee ee 20 be 53 74 94 be 70 cf ed bd
       -0.052653465 -0.15716144 -0.28994998 -0.11611831
000380 aa 0b be be 0c b5 db 3d 10 82 98 bd 71 e5 fd 3e
       -0.37118274 0.10727891 -0.074466825 0.49589112
000390 35 ea 1c be 33 75 3a 3e 54 5c 99 3d 37 cb 68 bc
       -0.15323718 0.1820877 0.07488313 -0.014208606
0003a0 5f 77 02 be fe 54 36 3f 29 63 6d be 5a 38 14 3f
       -0.12740849 0.7122344 -0.23182358 0.57898486
0003b0 28 fc b8 bd ca 9a 65 3d 65 bf e8 3d 9f de 9e 3d
       -0.0903247 0.05605582 0.113646306 0.07757305
0003c0 39 7f 5f 3d de 46 d1 3d 16 e6 a6 3d 5b 3c 91 3d
       0.05456469 0.10218595 0.08149354 0.0709159
0003d0 a8 27 7e bd e2 0a 28 3f 2d 33 f9 3e a9 81 9b 3e
       -0.062049538 0.65641606 0.48671857 0.3037236
0003e0 4c f8 da be c9 b4 ef 3e d6 ed 33 3e 5c 75 7a 3d
       -0.4276756 0.46817616 0.17571196 0.06114708
0003f0 c9 ea ca 3e b2 b6 7b 3e b6 ae be be 46 b8 cb 3d
       0.39632252 0.24581411 -0.3724267 0.09947257

gru.weight_hh_l1 f4 [96, 32]
000000 0f a5 e3 3d e5 02 82 be 50 69 3e bd 37 06 4c 3d
       0.11115467 -0.25392833 -0.046487153 0.049810614
000010 94 97 19 3d 63 7a 3c bd cc 34 5d be e3 c9 80 3e
       0.03749807 -0.046015155 -0.21602172 0.25154027
000020 50 df 87 3d e7 d1 3b be e7 0c 59 3d 1f a7 71 bd
       0.0663439 -0.1834179 0.05299082 -0.05899727
000030 2b 24 82 be 1e 9a d1 bd 64 0e 9b bc 72 8b 96 bd
       -0.2541822 -0.10234474 -0.01892776 -0.07350816
000040 fe 79 01 3a dc 5b f3 bd 17 08 0d 3d 40 f9 42 be
       0.0004939138 -0.11882755 0.034431543 -0.19040394
000050 9c 2e 0b be fe d5 87 3d a2 37 1d be ee 90 89 3d
       -0.13591999 0.06632613 -0.15353253 0.06717096
000060 26 1a 69 3e 70 77 c4 bd ee d5 f8 3d be cc d6 bd
       0.22763881 -0.095930934 0.12150179 -0.1048827
000070 58 50 0d 3e 38 a2 d9 bb 27 00 47 3b 5f 0f c6 bc
       0.1380018 -0.0066416524 0.003036508 -0.024177251
000080 0d 2a 0d 3d e3 45 9c bd 59 d2 53 3d 45 12 07 3d
       0.03446393 -0.07630517 0.051714275 0.032976408
000090 d0 3b a3 3e 06 86 a3 be ee fe 9c bd fd 18 85 3e
       0.3188157 -0.3193819 -0.076658115 0.25995627
0000a0 8e 94 22 3e 57 e9 24 3e 03 32 d3 3d 54 8c 1f bd
       0.15876982 0.16104637 0.10312273 -0.038952187
0000b0 6a 23 47 3d 03 4f 4c bc 38 b8 2f 3e 39 26 84 bd
       0.048617758 -0.01247001 0.17160118 -0.06452603
0000c0 b6 b3 56 be a8 bf 0c be f9 b1 3f be 80 8e 90 be
       -0.20966992 -0.13744986 -0.18720235 -0.2823372
0000d0 12 7b 2b 3d 78 7b 9d 3e cf 50 11 3e 08 eb 9e bd
       0.041865416 0.30758262 0.14190982 -0.077596724
0000e0 f3 55 2b bd 65 ad 7b 3e 42 8c d1 3d 19 ee 58 bd
       -0.041830014 0.24577864 0.1023183 -0.052961443
0000f0 15 07 88 3e 39 b8 45 be 5d 6b 5d bd f8 5e a9 3b
       0.26567903 -0.19308557 -0.054057468 0.005168792
000100 0c 2a dc be 27 06 74 bd 11 6b 93 be c1 13 09 3f
       -0.4300083 -0.05957618 -0.28792623 0.5354577
000110 af 2f fd 3d 07 d1 a7 be 02 31 86 bd f5 01 37 3d
       0.123626105 -0.32776663 -0.06552316 0.0446796
000120 f7 79 16 3e bc 0c 1f 3e 31 0c 66 3d b0 e4 1f 3e
       0.14694963 0.15532202 0.05616397 0.15614581
000130 75 d4 72 bd 75 4b 9c bd ee 0d 35 bd 3a a5 0b be
       -0.059284646 -0.0763158 -0.044202738 -0.13637248
000140 6d dd 5a be e6 7a f6 3d 13 c3 dd be c7 fa 98 bd
       -0.2137353 0.1203516 -0.43312892 -0.07469707
000150 d7 a1 65 bb 6d 21 97 be 30 e2 08 be 0b 86 6b 3e
       -0.003503909 -0.2951769 -0.13367534 0.23000352
000160 46 0a 8f 3c 27 7d ee be ad 41 ca be fe 2a ca bd
       0.017460953 -0.4657986 -0.39503232 -0.09871481
000170 e6 f0 0b 3e 66 fe b0 3d 49 8c 6d bd 53 8c 47 3e
       0.13666114 0.08642273 -0.057995114 0.19487123
000180 7e 2e 4b be 9a e9 56 be d9 62 88 be 02 43 74 3e
       -0.19841954 -0.2098755 -0.26637915 0.23853686
000190 b0 10 42 bd 9f ab e5 bb 47 24 dd bd e7 a9 b9 bb
       -0.047379196 -0.007008984 -0.10797935 -0.005666006
0001a0 67 5a 2e 3d 2b d3 48 be 0f 50 a0 3c 0e 5e c4 3e
       0.042566683 -0.19611804 0.019569425 0.38353008
0001b0 f9 6b 05 3e 07 f6 5b bb f8 30 81 be d4 f9 87 bd
       0.1302947 -0.0033563392 -0.25232673 -0.06639448
0001c0 1e 29 cf be 07 1a 8c 3e b9 37 32 be 05 bc 1c 3e
       -0.40461057 0.27363607 -0.17404069 0.15306099
0001d0 6b cc 8d be 43 a2 33 be 42 6c fa 3d 7b f1 a0 bd
       -0.2769502 -0.17542367 0.1222768 -0.07858559
0001e0 86 87 22 3b 24 bf 8b 3e 46 26 c6 be a8 52 1c be
       0.0024800017 0.27294266 -0.38701075 -0.15265906
0001f0 e1 bd 81 3e 9d 25 ff 3e 28 58 ea 3d 1a 10 69 3d
       0.2534018 0.49833384 0.11442596 0.05690012
000200 4a 29 0f 3e e9 61 d5 bb b5 27 91 be e8 39 b8 bd
       0.13980594 -0.006511916 -0.28350607 -0.0899542
000210 27 f1 6c 3e 07 5d 1c bd a9 5e 86 bd a4 cf 01 be
       0.23138867 -0.038174655 -0.06561024 -0.12676865
000220 96 71 19 be 48 f3 e8 bb db e0 52 bd d2 39 16 3e
       -0.14984736 -0.0071090795 -0.05148397 0.14670494
000230 7c f5 3a 3d 38 bd a0 3e 7a ee c6 3e 7c a1 a9 3d
       0.04564427 0.31394362 0.38853818 0.08282754
000240 b6 d1 f6 bc 74 f3 87 3e 1f ca c5 bd ac cf 05 be
       -0.030129295 0.26552927 -0.09657692 -0.13067502
000250 74 4d 2d be 5e 82 0a be 42 5c 04 3e 27 0a 84 3e
       -0.16924077 -0.13526294 0.12925819 0.25788996
000260 f4 08 1c 3e 9d 8e 13 3e 2a 6b 2b 3e 51 ed 7f 3e
       0.1523779 0.14409871 0.16740099 0.24992873
000270 ff bc 82 3e 1b ab 18 3e 3f b1 6a bc d8 39 de 3d
       0.25534818 0.14909022 -0.014324485 0.108508766
000280 ca db 52 3e a2 e1 19 be 62 d0 08 bd 15 8a c2 bd
       0.20591655 -0.15027478 -0.033401854 -0.09498993
000290 0c de 9f 3e 77 76 3f be 09 68 96 bd a9 47 94 3e
       0.31224096 -0.18697535 -0.07344062 0.28960922
0002a0 10 3c 8d 3d 11 e9 e3 bd 1f 90 36 3e 28 40 ca bd
       0.06896222 -0.11128438 0.17828415 -0.09875518
0002b0 dd 00 41 be 84 77 28 3e 43 3f 48 3e 96 ba 95 be
       -0.18847986 0.16451842 0.19555382 -0.29243916
0002c0 b7 21 4a 3d 6b 50 ee 3d 60 61 83 bd 7f 11 56 be
       0.04934856 0.11636432 -0.06415057 -0.20905112
0002d0 bd 62 4d bd 64 1e 0d be e8 2d 2a 3d 2f 0e c7 3d
       -0.050142992 -0.13781124 0.041547686 0.09719502
0002e0 e0 6f 84 3e 8c 1c 8a 3e 88 81 0a 3c 64 af 65 be
       0.25866604 0.26974905 0.008453734 -0.22430187
0002f0 f5 de 6c 3e da e2 d5 3d 9e 8d 1c bb f3 1d 3e be
       0.23131926 0.10443659 -0.0023888121 -0.18566112
000300 f5 f5 29 3d 17 05 44 3e fc 14 00 be 20 41 56 bc
       0.04149433 0.19142567 -0.12508005 -0.01307705
000310 c5 b8 d2 bd 56 5d 6f 3d cb 2a dd bc d3 24 fe bb
       -0.10289148 0.05843862 -0.026997944 -0.0077558546
000320 5d fd bc bd d8 bd 1c be d0 c8 70 3d 02 16 86 bd
       -0.09228013 -0.15306795 0.05878526 -0.065471664
000330 9f 00 c7 3d b2 4e 27 be 0a 43 51 3e cd 0d 97 bc
       0.09716915 -0.16338614 0.2043573 -0.018439198
000340 c4 d4 98 3e e3 e2 42 3e 2a 69 8d be b1 2f 86 be
       0.29849827 0.19031863 -0.27619296 -0.2620826
000350 cc 84 99 bd f4 a3 77 3e 2d 84 08 3e 39 8c db 3d
       -0.07496032 0.24183637 0.13331671 0.10720105
000360 fe e0 7f bd 65 10 32 bd 40 9d 36 3e 2c 31 19 3e
       -0.06247043 -0.043472666 0.17833424 0.14960164
000370 f9 ad 63 3d 98 f0 a1 3d 44 e3 0b be 94 7e ab 3d
       0.055585835 0.07907218 -0.13660914 0.08373752
000380 78 53 5a be fe 2c ba bd 4a f0 4e 3e 93 04 bb 3e
       -0.21320903 -0.09090613 0.2020885 0.36526927
000390 af d6 21 3d 80 96 e5 be d6 15 d0 3d c4 4d d4 bd
       0.03951138 -0.44841385 0.10160415 -0.10366395
0003a0 67 e0 b0 3c d6 02 0c 3d 7f 12 ca bd 97 6b 8b bd
       0.021591378 0.034182392 -0.09866809 -0.068076305
0003b0 66 f9 4e be 41 d9 9b 3e 87 d2 8e 3e 9b 60 09 3e
       -0.20212325 0.3043919 0.27894995 0.13415758
0003c0 ee 8e 14 bc 74 d8 5f be 32 75 18 be 4f 37 86 be
       -0.00906728 -0.21859914 -0.14888456 -0.26214072
0003d0 82 c4 6e bd 62 ab e4 bc 0b 96 e3 3d 66 9b 83 bd
       -0.058292873 -0.027913753 0.11112603 -0.06426124
0003e0 34 ed c0 be 6e 15 53 be 36 5c ad bc 5e 64 25 3e
       -0.37680972 -0.20613644 -0.021162134 0.16151568
0003f0 34 86 90 bd 28 35 16 be 7b d3 b8 3e 84 da 42 bd
       -0.07056847 -0.14668715 0.36098847 -0.047571674

gru.bias_ih_l1 f4 [96]
000000 e5 24 f3 3c ae 37 92 3e 97 b8 92 3d f1 20 04 bd
       0.029680679 0.28558105 0.07164114 -0.032257978
000010 3c d6 31 3e 6b d9 22 3e fb b0 3d 3e 69 a1 78 3e
       0.1736688 0.15903251 0.18524544 0.24280323
000020 3f 37 05 3e 5e ae 59 3d 58 0b aa 3c 17 16 1a 3d
       0.13009356 0.053144805 0.020757362 0.037618723
000030 2b 13 a3 3e 97 3a 34 3e 58 7a 99 3e cd 2c 50 3d
       0.31850561 0.17600475 0.29976153 0.050823975
000040 13 0d 89 3d 7e c5 0f 3d da 53 90 3e 9a 94 de 3d
       0.06691947 0.035100453 0.28188974 0.10868187
000050 43 77 d7 3e ff 0f 61 3e 7d 7b 42 3e 2f 9e 12 3e
       0.42083177 0.21978758 0.1899242 0.14318155
000060 b6 e2 4e 3d de 9c c7 3d 62 68 34 3e 7d f7 8f 38
       0.050509177 0.09746717 0.17617944 6.86487e-05
000070 51 97 c5 bd 68 3e 73 3e 89 b1 c9 bb 8d 26 b4 3e
       -0.09648002 0.23754275 -0.006155197 0.35185662
000080 dc 5c 74 3e b8 f0 02 be 0e 7c f2 be 72 9a 1c be
       0.23863548 -0.1278714 -0.4736027 -0.15293291
000090 72 47 8e be 61 b1 9b be 84 e1 14 3e ee a5 b1 be
       -0.27788883 -0.30408767 0.14539152 -0.34696907
0000a0 b3 1b 02 bf 0c ac 9f be eb 1d 11 be e2 ac e6 be
       -0.50823516 -0.3118595 -0.14171569 -0.45053774
0000b0 9b 59 c4 3d 27 3f 27 be e2 1a c6 bd 0f f0 8a 3c
       0.095874034 -0.16332684 -0.09673096 0.016960172
0000c0 c3 06 79 be 5b ce 96 be b6 c5 9a be f5 3f da 3c
       -0.24318986 -0.29454312 -0.30228966 0.026641825
0000d0 5d f2 47 3c f3 57 96 bd 20 93 7a be 8d 13 9e be
       0.01220378 -0.07340994 -0.24470186 -0.3087429
0000e0 7a e7 ed 3c ed 40 25 3e f5 3e 16 be c6 c4 9f be
       0.02904104 0.16138048 -0.14672454 -0.31204814
0000f0 57 6e 44 be a0 e6 61 3c 77 13 01 bf 38 ad aa be
       -0.19182716 0.013787895 -0.50420326 -0.3333528
000100 c2 ba 91 bd 47 41 a5 3c 13 ce 43 be d7 60 25 3d
       -0.07115699 0.020172728 -0.1912158 0.040375557
000110 f3 00 f5 3d 04 0d ca bd 38 1e 0c be 6d 49 50 3e
       0.11963072 -0.09865764 -0.13683403 0.2034051
000120 1e 8d 01 3e 1b 47 cd bd 33 27 55 bd e7 6d f8 3d
       0.12651488 -0.10023328 -0.052039336 0.12130337
000130 28 84 72 be 2a 9f 04 be 81 cf c1 3b ac 0e 11 be
       -0.23683226 -0.12951341 0.005914629 -0.14165753
000140 9c d3 11 be d9 f1 c7 3d ea 43 2e be a5 3c 8b 3c
       -0.14240879 0.09762926 -0.17018095 0.016996691
000150 89 68 d2 bd 96 95 24 be 4d d8 07 3e c0 cc a0 bd
       -0.10273845 -0.16072688 0.13266106 -0.07851553
000160 84 09 49 3e 05 52 4c 3c 5e 30 33 bc 0e 0f c1 bd
       0.19632536 0.012470727 -0.010936825 -0.094266996
000170 d1 93 9d bd dd f1 7b bc 93 71 37 3e 11 22 d8 bd
       -0.07694209 -0.015377489 0.17914419 -0.10553373

gru.bias_hh_l1 f4 [96]
000000 17 e4 05 bc a3 ab 14 3e 29 13 ab 3e 90 79 5e 3d
       -0.008172057 0.14518599 0.33413056 0.05431515
000010 88 4f 93 3e f3 0d 98 3e 77 c1 17 bd de 0d 0b bd
       0.28771615 0.29698142 -0.037049737 -0.03394877
000020 2e 62 5d 3e 49 44 03 3d 8f 87 3f bd 6c 11 bb 3d
       0.21619484 0.032047544 -0.046760138 0.09134182
000030 45 1c 8f 3d 08 81 8d 3e 1b 30 fd 3d 72 3e e5 3d
       0.06987814 0.27637506 0.12362691 0.11193551
000040 0f d6 b3 3d c9 36 61 3e e0 38 3b bb 1e 06 b4 3d
       0.08781063 0.21993555 -0.0028567836 0.08790229
000050 d6 d2 9d 3e ce b6 db bc 5e 7a 8b 3e 25 97 c8 3e
       0.30824918 -0.026820567 0.27241796 0.39177814
000060 e6 d5 9f 3e 21 ec 33 3e 05 37 62 3e c5 d5 ec 3d
       0.3121788 0.17570545 0.22091301 0.11564211
000070 16 5b a5 bc db 7e 88 3e 17 80 21 3e 05 36 ff 3d
       -0.020185035 0.26659283 0.15771519 0.12461475
000080 1f f4 85 3e c3 03 9a bd 10 50 b4 be b0 c1 b0 be
       0.26162812 -0.07520249 -0.35217333 -0.34522772
000090 a9 d7 d2 be de 20 1e be de 08 83 bd dc 97 b5 be
       -0.4118016 -0.15442225 -0.06398176 -0.35467422
0000a0 01 35 82 be 3d ca 37 be 44 32 16 be 8f 12 89 be
       -0.25431064 -0.17948242 -0.14667612 -0.26771972
0000b0 6d 65 21 3d fe a5 91 bd f7 0c 00 be c0 04 90 bd
       0.039403368 -0.071117386 -0.12504946 -0.07032156
0000c0 11 ed 86 be a8 fa f5 bd af b8 f4 be b0 09 48 bd
       -0.26352742 -0.120106995 -0.47797152 -0.048837364
0000d0 a2 98 a0 be e6 b7 73 be ff 23 c8 be f4 41 5c be
       -0.3136645 -0.2380062 -0.39089963 -0.21509534
0000e0 17 b3 82 3d 3f 76 90 3d f0 cb 9f be 35 08 4d be
       0.06381815 0.07053804 -0.3121028 -0.20022662
0000f0 ad bd 4f be 10 bb 46 be 79 90 ac be 38 d3 f2 be
       -0.202872 -0.19407296 -0.33703974 -0.47426772
000100 2a be 14 3e aa 36 36 be 12 68 97 bd 35 c9 83 bd
       0.14525667 -0.1779429 -0.07392897 -0.064348616
000110 35 65 2c 3d a9 eb 04 3d 1a a2 12 be 9e d8 c4 bc
       0.042088706 0.032451306 -0.1431965 -0.024029072
000120 15 20 c8 bd 89 d5 0b 3e 93 44 70 3d 76 69 ed bd
       -0.09771744 0.13655676 0.058659147 -0.11592381
000130 b1 3a 5d 3d ef 9d 69 3e 89 79 02 3d 62 da 66 be
       0.05401105 0.22814153 0.031854186 -0.22544244
000140 b6 e4 93 3d 76 a5 fe 3c bc 7e 06 be b4 3d 2a 3e
       0.072213575 0.031084757 -0.13134283 0.166251
000150 78 0a f1 3d 35 04 be bd 04 ac 4f 3d 5b 27 36 3e
       0.11769575 -0.09278146 0.050701156 0.1778845
000160 a0 2b b5 3d 0b 69 31 3d 58 2d 07 be a3 70 15 3e
       0.088462114 0.043313067 -0.13200891 0.14593749
000170 bb e6 bb 3c c2 31 44 bd ad d7 36 3e 80 5f e3 bc
       0.02293717 -0.047899015 0.17855711 -0.027755499

fc.weight f4 [2, 32]
000000 23 9c 3c 3d 9a 31 17 be 06 d7 18 3f 24 1c de be
       0.04604734 -0.14765015 0.597031 -0.43380845
000010 f7 60 5c 3e 1f 03 08 bf 99 66 a8 bd 16 3d e8 3e
       0.21521364 -0.5312976 -0.08222694 0.45359105
000020 c8 c8 28 3f 2c 2d 14 3f 99 fc f8 3e bb 8f 98 bf
       0.6593137 0.57881427 0.48630217 -1.1918863
000030 c0 ff 58 bd 6f 12 57 3e 19 cb 82 bf 25 11 13 be
       -0.052978277 0.21003126 -1.021823 -0.14362009
000040 28 d8 cb 3e 91 5d 17 bf 47 e2 9d 3e 3d 04 0e bf
       0.39813352 -0.59127146 0.30836698 -0.5547522
000050 9d 23 a6 bc a5 1a 2a 3e 7a e3 f9 3e e1 02 a5 bf
       -0.020280654 0.16611727 0.48806363 -1.2891504
000060 a9 28 d3 bd 7d 25 df 3d ae c9 08 bf 09 a3 12 3f
       -0.1031049 0.10895822 -0.5343274 0.5728002
000070 e5 e8 8a be e1 12 52 bf b1 74 ff 3c d2 d1 1d bf
       -0.2713081 -0.82060057 0.031183572 -0.61648285
000080 f8 0a 70 bd 33 25 cb 3e bd 52 1b bf 97 26 94 3e
       -0.05860421 0.39676818 -0.60673124 0.28935692
000090 74 5a 85 be 9d 18 05 3f 93 2a 53 be 13 1d 11 be
       -0.26045573 0.5199068 -0.2062171 -0.14171247
0000a0 67 45 32 bf 26 8a 11 bf 77 2a 27 bf 91 f0 9c 3f
       -0.6963715 -0.5685142 -0.6529917 1.2260915
0000b0 13 88 f6 bc ef 15 d7 be 09 f9 84 3f 37 56 95 3d
       -0.030094182 -0.42008922 1.03885 0.07291835
0000c0 7d 80 1f bf c1 00 0e 3f 85 d5 05 bf 23 74 14 3f
       -0.6230543 0.554699 -0.5227893 0.5798971
0000d0 e3 f4 b8 3d f5 f0 c2 bb 90 4e 10 bf aa 0f b2 3f
       0.090310834 -0.0059491345 -0.56369877 1.391103
0000e0 bb f2 6b bd 02 bd 20 bd 66 e6 26 3f bd 62 1f bf
       -0.057604533 -0.039242752 0.6519531 -0.6226004
0000f0 53 3f d9 3e 67 13 7b 3f 07 ca 55 3d c3 04 03 3f
       0.42431125 0.9807648 0.05219462 0.5117914

fc.bias f4 [2]
000000 12 eb 29 bd a2 39 2a 3d
       -0.041483946 0.04155887
