weights/lstm_1000.pth (torch, 57379 bytes, 10 tensors)

lstm.weight_ih_l0 f4 [128, 8]
0	0x3ee88344	0.45412648
1	0x3e183202	0.14862826
2	0x3e6d9c8a	0.23204246
3	0x3ebd622f	0.3698897
4	0x3df2c1d0	0.11853373
5	0x3e32ed2e	0.1747329
6	0x3eb3d5a0	0.3512392
7	0x3eb09944	0.34491932
8	0x3e1e0442	0.15431312
9	0x3e9f7484	0.31143582
10	0x3ec65523	0.3873683
11	0x3eecd99e	0.4625978
12	0x3e9b2c10	0.30307055
13	0x3dddbf00	0.10827446
14	0x3dc25344	0.09488538
15	0x3dbf6282	0.09344961
16	0xbdd39341	-0.10330821
17	0x3a1750f0	0.00057722535
18	0xbcf98618	-0.030459449
19	0x3db769c2	0.089557186
20	0x3d94b4bf	0.07261037
21	0xbdc744c0	-0.0972991
22	0x3cdc1fd0	0.026870638
23	0xbde073d6	-0.10959594
24	0x3e52b556	0.20576987
25	0x3d75cb19	0.060008142
26	0x3d8e5f26	0.06951742
27	0x3e13f899	0.14450301
28	0x3e556d38	0.20842445
29	0xbdc73acc	-0.097280115
30	0x3d7b30ec	0.061325952
31	0x3e835dca	0.25657493
32	0x3c41ec0d	0.011836064
33	0xbdc029e9	-0.09382994
34	0x3dfab4c3	0.12241509
35	0x3ccbcf9e	0.024879273
36	0x3e1d95d4	0.15389186
37	0x3ea216a8	0.3165791
38	0xbdb2345b	-0.08701392
39	0x3e953fe2	0.291503
40	0x3de16f83	0.11007597
41	0xbdee119d	-0.11624453
42	0xbda98ae3	-0.08278444
43	0x3d57381c	0.052543744
44	0xbd628d63	-0.055310618
45	0xbe26b6d9	-0.16280688
46	0xbde90229	-0.11377365
47	0x3cba6789	0.022754448
48	0xbe6407ce	-0.22268602
49	0xbd7a8a5a	-0.0611671
50	0xbd8d1d7a	-0.06890388
51	0x3e76c559	0.2409872
52	0xbcd30a8d	-0.025761867
53	0x3d05e3b6	0.032687865
54	0x3e85e61e	0.26152128
55	0x3dd95327	0.10611563
56	0x3e9f1e45	0.3107778
57	0x3e27eda4	0.16399246
58	0x3ed07db5	0.40720907
59	0xbd9fd43d	-0.07804153
60	0x3df4d033	0.11953773
61	0x3e263b5c	0.16233581
62	0x3de57902	0.11204721
63	0x3e6df40c	0.23237628
64	0x3c936fa9	0.01799758
65	0x3e8a414a	0.27002937
66	0x3ea118bf	0.31464192
67	0x3e87b458	0.2650478
68	0x3e89c422	0.2690745
69	0x3e74ff12	0.23925427
70	0x3e8aaa8b	0.2708324
71	0x3df14948	0.117815554
72	0x3deceab7	0.11568206
73	0x3e63e8b9	0.22256745
74	0x3d442a0b	0.047891658
75	0x3ea62d11	0.32456258
76	0x3c8dcb79	0.017308937
77	0x3e23d8fb	0.1600074
78	0x3dc10a73	0.09425821
79	0x3ecaa68c	0.3958019
80	0x3df086bc	0.117444485
81	0xbc907496	-0.017633718
82	0xbe0c990d	-0.13730259
83	0x3e8d3a94	0.27583754
84	0x3d9fe12d	0.07806621
85	0xbc3c5d18	-0.011496805
86	0x3e98e331	0.29860833
87	0xbe3c71bf	-0.18402766
88	0xbdf50c53	-0.11965241
89	0xbe2159fa	-0.1575698
90	0xbd594936	-0.053048335
91	0xbe3206fa	-0.17385474
92	0xbdef3c01	-0.11681367
93	0x3e1a6089	0.15075888
94	0xbc6b3ee8	-0.01435826
95	0xbcc7c749	-0.024387019
96	0x3e07e5df	0.13271283
97	0x3d6cf455	0.0578502
98	0xbd64c30f	-0.055850085
99	0xbdc1915f	-0.094515555
100	0x3e45543f	0.19270419
101	0xbda4e65e	-0.080517516
102	0x3d810e84	0.06301597
103	0x3e8f7645	0.2801992
104	0xbe8736b0	-0.2640891
105	0x3d4c1a35	0.04982968
106	0xbda09c74	-0.07842341
107	0x3e28c4fc	0.16481394
108	0x3da46866	0.08027725
109	0xbd8f11dd	-0.06985829
110	0xbd817b89	-0.063223906
111	0xbe340f15	-0.17583878
112	0x3e5611de	0.20905253
113	0x3dec4df1	0.11538304
114	0x3e9d8082	0.30762106
115	0x3e68c88f	0.22732757
116	0x3e1b1a4f	0.15146755
117	0xbe246164	-0.16052777
118	0x3e20f34e	0.15717813
119	0x3e75ff0f	0.24023078
120	0x3e776ebe	0.24163339
121	0x3e350184	0.1767636
122	0xbd8f2cc9	-0.06990964
123	0x3daa833e	0.08325814
124	0x3ebed3f9	0.37271097
125	0xbcbfffea	-0.023437459
126	0xbdca450a	-0.098764494
127	0x3eeca4d6	0.4621951
128	0xbd3e331e	-0.046435468
129	0xbc6555eb	-0.013997535
130	0x3e462333	0.19349365
131	0x3e8263d8	0.254668
132	0x3dc8d7b9	0.09806771
133	0x3df4cca8	0.119530976
134	0x3e72eb62	0.23722604
135	0x3e20a2d0	0.15687108
136	0x3e70cc82	0.23515514
137	0x3e17c6fe	0.14822003
138	0x3f1334f1	0.5750266
139	0x3de452dc	0.11148617
140	0x3ef2bf50	0.47411585
141	0x3e96867a	0.29399472
142	0x3edc3ee9	0.43016747
143	0x3db69c42	0.089165226
144	0xbe0f6439	-0.14003076
145	0xbd3f74c9	-0.046742234
146	0xbd06e0cb	-0.032929223
147	0x3e33cb60	0.1755805
148	0x3e17716f	0.14789365
149	0x3dcd8bd9	0.100364394
150	0xbe7cfa86	-0.24704942
151	0xbe08c404	-0.13356024
152	0x3e12c72b	0.14333789
153	0x3e02cb95	0.12772973
154	0x3e63a689	0.22231497
155	0x3e686476	0.22694573
156	0x3e049e2a	0.1295096
157	0x3e0f0827	0.13967954
158	0x3e824dba	0.25449926
159	0x3c1c06e8	0.009523131
160	0x3e0bdbc0	0.13658047
161	0x3c826b1f	0.01592022
162	0x3e1c6df1	0.15276314
163	0x3e2bc28d	0.16773434
164	0x3dd29c8d	0.10283766
165	0xbe0f7e68	-0.14013064
166	0x3eb5e4e7	0.355262
167	0x3e1e6f11	0.15472056
168	0x3eb8baa4	0.36079895
169	0x3e6794e8	0.22615397
170	0x3ecb20ea	0.3967355
171	0x3e6cc347	0.23121367
172	0xbdc906bd	-0.09815738
173	0x3eae85bb	0.34086403
174	0x3d262d24	0.040570393
175	0x3eb18d89	0.34678295
176	0x3b7b7cdb	0.003837398
177	0x3db53eff	0.08849906
178	0x3db803fa	0.089851335
179	0x3dc9512d	0.09829936
180	0xbc806a87	-0.015675796
181	0x3daa8c94	0.083275944
182	0x3d053941	0.032525305
183	0x3e5a15f3	0.21297435
184	0xbdd42fa4	-0.10360649
185	0x3e509980	0.20371056
186	0x3e53650e	0.20644018
187	0xbdf35927	-0.11882239
188	0x3df40b07	0.11916166
189	0x3e853a03	0.26020822
190	0x3e9d3bbf	0.30709645
191	0x3e3e9d94	0.18614799
192	0x3de38003	0.11108401
193	0x3e12aea0	0.14324427
194	0xbbd29f28	-0.0064276643
195	0xbd5eecb9	-0.054424975
196	0x3db16c12	0.08663191
197	0xbe0478a8	-0.12936652
198	0x3d9f771e	0.07786392
199	0x3d8c790e	0.06859027
200	0xbb227a4d	-0.0024792135
201	0xbe0d47e3	-0.13796954
202	0xbd21a1a6	-0.0394608
203	0x3ce21ff8	0.027603135
204	0x3e1505b9	0.14552964
205	0xbd82eeb0	-0.06393182
206	0xbdf0e86b	-0.1176308
207	0xbd3da8c4	-0.046303526
208	0xbd9a163c	-0.07523772
209	0x3e50b586	0.20381746
210	0x3d63e05c	0.055633888
211	0xbe6f20a8	-0.23352301
212	0xbe5e788f	-0.21725677
213	0xbe01a9b4	-0.12662393
214	0xba2c170a	-0.00065647124
215	0xbd835e59	-0.0641448
216	0x3e894ace	0.26814884
217	0x3ea8caff	0.32967374
218	0x3e510db8	0.2041539
219	0x3cb6f228	0.022332266
220	0x3e25cd6f	0.16191648
221	0x3bb65d9f	0.0055653597
222	0xbd62cee7	-0.0553731
223	0xbcf810e6	-0.030281495
224	0xbd8daab6	-0.06917326
225	0xbd736893	-0.0594259
226	0xbdf7fe71	-0.12109078
227	0x3dbd7336	0.0925049
228	0x3e06a1e7	0.13147698
229	0x3e505fe4	0.2034908
230	0xbd7c52cd	-0.061602402
231	0xbd0507bf	-0.03247809
232	0xbc9e9236	-0.019356828
233	0x3d30798d	0.04308467
234	0x3e50e830	0.20401073
235	0x3d291bfa	0.041286446
236	0x3c842f45	0.016135821
237	0x3dfb2e6b	0.12264713
238	0xbb98c3ea	-0.0046620267
239	0x3e0eb42d	0.13935919
240	0x3d91f7db	0.07127353
241	0x3ca5980c	0.020214103
242	0xb91c704c	-0.00014919153
243	0x3dbd33f8	0.09238428
244	0xbe4065dd	-0.18788858
245	0x3dfa06ff	0.12208366
246	0x3e6cb1b4	0.23114663
247	0xbdb0b45a	-0.08628149
248	0x3daa96fd	0.0832958
249	0xbc0ee88b	-0.008722435
250	0xba7f8e88	-0.0009748717
251	0x3d95bf8c	0.07311925
252	0xbe250c1b	-0.16117899
253	0x3d511880	0.051048756
254	0x3c809c67	0.015699578
255	0xbdfac96b	-0.12245449

lstm.weight_hh_l0 f4 [128, 32]
0	0x3e84afb4	0.259153
1	0x3eacd652	0.33757263
2	0x3edf6930	0.4363494
3	0xbe87bc92	-0.26511055
4	0x3eac7087	0.33679602
5	0x3eb6e4e7	0.35721514
6	0x3dce8513	0.10083976
7	0xbe43d70f	-0.19125007
8	0x3f452701	0.7701264
9	0x3eb6790d	0.3563923
10	0xbe6bc40f	-0.23024009
11	0xbea91196	-0.3302123
12	0xbdb84f10	-0.08999455
13	0x3ef440c0	0.4770565
14	0xbf4afce7	-0.7929215
15	0xbe49ae70	-0.19695449
16	0xbe64f85d	-0.22360368
17	0x3e91fc57	0.28512833
18	0xbe91942b	-0.28433356
19	0xbe761e95	-0.24035104
20	0x3f1d5c46	0.61468923
21	0xbee05b06	-0.43819445
22	0xbd63e95b	-0.055642467
23	0xbeeac7ab	-0.4585546
24	0x3ef918d3	0.48651752
25	0x3f2971ff	0.6618957
26	0xbe4e5fed	-0.2015378
27	0xbe0853c4	-0.13313204
28	0x3e3f2d03	0.18669514
29	0x3e437326	0.19086894
30	0xbd6c9a76	-0.057764493
31	0xbed6b54a	-0.41935188
32	0x3e3979e0	0.18112898
33	0x3e2896dc	0.16463798
34	0xbe319cfa	-0.17345038
35	0xbda88069	-0.08227617
36	0xbe8c5d6f	-0.27415034
37	0xbe48da94	-0.19614631
38	0xbea47e1f	-0.32127473
39	0x3d331e6a	0.043730177
40	0x3e3bfdfe	0.18358609
41	0x3eb4c09a	0.35303193
42	0xbe0cbcfb	-0.13743965
43	0x3d90073b	0.07032629
44	0x3d13b9a9	0.03606573
45	0xbd48a15d	-0.048982013
46	0xbe147212	-0.1449664
47	0x3d9f27fc	0.07771298
48	0x3d05ac5a	0.03263507
49	0xbe115802	-0.14193729
50	0x3bc4a4e3	0.0060011013
51	0xbd62df97	-0.055389013
52	0x3e560f75	0.20904334
53	0x3e5aa878	0.21353328
54	0x3dcd3ac0	0.10020971
55	0xbd5c4ad2	-0.05378229
56	0x3e19f18f	0.15033554
57	0xbd62ede1	-0.05540264
58	0xbce72f4f	-0.0282208
59	0x3e227957	0.158666
60	0x3e7f4f8a	0.24932685
61	0x3e147c99	0.14500655
62	0x3e147f73	0.14501743
63	0x3daa4888	0.083146155
64	0x3e33f817	0.17575108
65	0xbdf26262	-0.11835171
66	0x3e349667	0.17635499
67	0xbcbbd877	-0.022930367
68	0xbd3d96df	-0.04628646
69	0x3c6e753b	0.014554317
70	0xbdf4af2a	-0.119474724
71	0xbcc4c5d1	-0.024020107
72	0x3ccf2e67	0.025290681
73	0x3e87fe64	0.26561272
74	0xbd1770cf	-0.036972817
75	0xbe3fbe20	-0.1872487
76	0xbad1c1e9	-0.0016003224
77	0xbca6ab3a	-0.020345319
78	0x3d0aa1d1	0.033845726
79	0x3d8f393b	0.06993338
80	0xbdc2806d	-0.094971515
81	0xbe5bc664	-0.21462399
82	0x3e399ebd	0.1812696
83	0xbdeea7b7	-0.11653083
84	0x3e86c4bc	0.2632197
85	0x3e2a4cc5	0.16630848
86	0x3d91c7d4	0.07118192
87	0xbd58ea67	-0.05295792
88	0x3e03091f	0.12796448
89	0xbe392ba5	-0.18083055
90	0xbdf2e8d8	-0.11860818
91	0x3db7c772	0.08973588
92	0xbdde1720	-0.108442545
93	0x3e0a0809	0.13479628
94	0x3c7414c2	0.014897527
95	0x3d0d1c1f	0.034450646
96	0x3df6829c	0.120366305
97	0xbdc7897b	-0.09743019
98	0x3c920897	0.017826362
99	0x3d43c4ee	0.04779523
100	0xbb961f36	-0.0045813574
101	0xbd990811	-0.07472242
102	0x3c300914	0.010744352
103	0x3e32f5cc	0.17476577
104	0x3e4149b5	0.18875773
105	0xbd012a9e	-0.031534784
106	0x3d9d4814	0.076797634
107	0xbcf045f5	-0.029330233
108	0xbe3c5c85	-0.18394668
109	0xbd6f2ebf	-0.05839419
110	0xbe66b522	-0.22530034
111	0x3c32b676	0.01090776
112	0xbea51ab6	-0.3224694
113	0x3dd11722	0.1020949
114	0xbd436e0d	-0.047712374
115	0x3d75606f	0.05990642
116	0x3e6c8657	0.23098122
117	0xbe4c88fa	-0.19974127
118	0x3de1a315	0.110174336
119	0xbe76a97d	-0.24088092
120	0x3e3b20b5	0.18274195
121	0x3e4ccee2	0.20000795
122	0xbe311b19	-0.17295493
123	0x3e8a7634	0.27043307
124	0x3db23c69	0.087029286
125	0xbcb418cc	-0.02198448
126	0x3d2924dc	0.041294917
127	0xbd82b19f	-0.06381535
128	0x3e943a26	0.28950614
129	0xbe41b761	-0.1891761
130	0x3e38a22a	0.1803061
131	0xbeafc2bc	-0.34328258
132	0x3b412511	0.0029471556
133	0x3c3d1315	0.011540194
134	0x3da251f5	0.07925788
135	0xbdf0209f	-0.11724972
136	0x3da0be2d	0.07848773
137	0x3e8562f1	0.2605205
138	0xbe792c89	-0.24333395
139	0x3e0c57c5	0.13705356
140	0xbe8c0c7a	-0.2735327
141	0xbe663310	-0.22480416
142	0xbdedab3e	-0.116049275
143	0x3e978d6a	0.29600078
144	0xbe6044e0	-0.21901274
145	0xbdc3f976	-0.09569065
146	0xbd2c8625	-0.042120118
147	0x3ea60553	0.32425937
148	0x3dc513d8	0.096229255
149	0x3ef05011	0.46936086
150	0x3d9d3120	0.076753855
151	0xbe690388	-0.22755253
152	0x3e8312ce	0.25600284
153	0xba1725d2	-0.00057658285
154	0xbdbb29c5	-0.09138826
155	0x3eeb79f3	0.45991477
156	0x3e0547ef	0.13015722
157	0x3bc1e429	0.0059170914
158	0x3dadc09e	0.084840044
159	0xbe2bb89a	-0.16769639
160	0x3d91f1e8	0.07126218
161	0xbe31cbe8	-0.1736294
162	0xbb89d51c	-0.004206313
163	0xbdaf40ff	-0.08557319
164	0x3f284798	0.65734243
165	0x3e51e821	0.20498706
166	0xbe3c82a2	-0.18409207
167	0x3dcef6a9	0.101056404
168	0xbf1a90df	-0.60377306
169	0xbdef6737	-0.116896085
170	0x3e31a28d	0.17347164
171	0x3e318850	0.17337155
172	0xbe294a72	-0.16532305
173	0x3dd03b46	0.101675555
174	0x3ee237a5	0.44183078
175	0xbe75f033	-0.2401741
176	0xbec82177	-0.39088032
177	0x3ec2b5f2	0.38029438
178	0xbeef77ec	-0.4677118
179	0x3d2c202e	0.042022876
180	0xbe893927	-0.26801416
181	0xbe5645ee	-0.20925114
182	0xbdca9b34	-0.09892884
183	0x3e99062c	0.2988752
184	0xbd8aab02	-0.067708984
185	0x3ed1d91b	0.4098595
186	0xbb39c546	-0.0028346344
187	0xbdfdad7e	-0.12386607
188	0xbe02bde1	-0.12767746
189	0xbe5ebb62	-0.21751168
190	0x3ce13886	0.027492773
191	0x3e363fda	0.17797795
192	0xbe8a0524	-0.26957047
193	0x3dff1d1f	0.12456726
194	0x3e46c8ea	0.1941258
195	0x3e73a0cd	0.2379181
196	0x3d53e95b	0.051736217
197	0xbd9f0d30	-0.07766187
198	0xbda803f9	-0.08203883
199	0xbdc0dcb0	-0.09417093
200	0x3e0dc80e	0.13845846
201	0x3eabcabc	0.33553112
202	0x3e254901	0.1614113
203	0xbe15746c	-0.14595193
204	0x3e5fa38d	0.21839733
205	0x3d282441	0.0410502
206	0xbc0e97c7	-0.008703179
207	0x3ea3ec67	0.32016298
208	0x3e64fa38	0.22361076
209	0xbd8cd45b	-0.06876441
210	0x3ec7999d	0.38984385
211	0xbe31f6f6	-0.17379364
212	0x3e641cf9	0.22276677
213	0xbee29099	-0.44250944
214	0xbc9be0f1	-0.019028159
215	0x3e52b46f	0.20576642
216	0x3c8e566d	0.017375195
217	0xbec46c11	-0.38363698
218	0x3c9103b3	0.01770196
219	0x3e89a63b	0.26884636
220	0x3ac1663d	0.0014755201
221	0x3d511dab	0.051053684
222	0x3e3f9daa	0.18712488
223	0x3dd763f4	0.105171114
224	0x3e6ffacd	0.23435517
225	0x3e6db40b	0.23213212
226	0x3e5ccf8c	0.21563548
227	0xbeac0169	-0.33594826
228	0xbe613b27	-0.21995221
229	0x3e018692	0.12648991
230	0x3e44e5d9	0.19228305
231	0xbe5550bb	-0.20831577
232	0x3d9572dd	0.07297299
233	0x3dcbe4c3	0.09955742
234	0xbf0a5136	-0.5403017
235	0xbdca32ed	-0.098729946
236	0x3e5e8b8b	0.21732919
237	0x3d9ad500	0.07560158
238	0xbe92853d	-0.28617278
239	0x3db1eb48	0.086874545
240	0xbcf84fcc	-0.030311488
241	0x3e42e912	0.19034222
242	0xbdf32f92	-0.11874308
243	0xbd05f81e	-0.032707326
244	0x3ebe53d0	0.3717332
245	0xbdc0a650	-0.094067216
246	0x3e943059	0.28943136
247	0xbe33319c	-0.17499393
248	0x3e95af0a	0.29235107
249	0x3e71df98	0.2362045
250	0xbe68ed78	-0.22746837
251	0x3d780ea8	0.060560852
252	0x3dc171e2	0.094455495
253	0x3e64f1e1	0.22357894
254	0xbc042122	-0.00806454
255	0xbb75137f	-0.0037395654

lstm.bias_ih_l0 f4 [128]
0	0x3e4e3755	0.20138295
1	0x3d8ea64e	0.06965314
2	0x3e33d6dd	0.17562433
3	0x3dde78fe	0.10862921
4	0x3ea6457e	0.32474893
5	0x3c0b17ff	0.008489608
6	0x3dcc5118	0.09976405
7	0x3e731800	0.23739624
8	0x3e8c781f	0.27435395
9	0x3e8248b8	0.25446105
10	0x3e07ec5c	0.13273758
11	0x3c90f327	0.01769407
12	0xbc204e0d	-0.009784234
13	0xbbd9c07c	-0.0066452604
14	0x3d3ea5de	0.046544902
15	0x3e5d7bb4	0.2162922
16	0xbc0f206e	-0.008735759
17	0x3e9a0028	0.30078244
18	0x3d84f75e	0.06492494
19	0x3de075c9	0.10959966
20	0x3d20ab74	0.03922601
21	0x3ebc12d7	0.36733124
22	0x3e714657	0.23561989
23	0xbd464a18	-0.048410505
24	0x3e191475	0.1494921
25	0x3e851ca7	0.25998423
26	0x3c5449da	0.012957061
27	0x3e583ecc	0.21117705
28	0xbd16d49e	-0.03682386
29	0x3e4122e7	0.1886097
30	0x3e83e6ac	0.25761926
31	0x3df0ad8b	0.11751851
32	0x3dc7bcbd	0.09752796
33	0x3dc47e3f	0.09594392
34	0x3e664388	0.22486699
35	0xbdcc5927	-0.09977942
36	0x3d27240a	0.040805854
37	0xbd53009b	-0.05151425
38	0x3e159aff	0.14609908
39	0x3a45ac28	0.0007540607
40	0x3dd9c23b	0.1063275
41	0x3db477d9	0.088119216
42	0x3dd86fd0	0.105682015
43	0x3d3ef41a	0.046619512
44	0x3e71d1fb	0.23615257
45	0xbccf6fb1	-0.025321813
46	0x3e032f8b	0.12811105
47	0xbd74b9d4	-0.059747532
48	0x3e5d99ee	0.21640751
49	0x3e30e247	0.17273818
50	0x3e77fd68	0.2421776
51	0x3d347db8	0.044065207
52	0x3cd01be1	0.025403919
53	0xbd23dfe9	-0.04000846
54	0x3e6867c6	0.22695836
55	0xbe0677c3	-0.13131623
56	0x3dcfe8f1	0.10151852
57	0x3b842188	0.0040323175
58	0xbe0765d7	-0.13222443
59	0x3cf0de54	0.02940289
60	0xbda44d07	-0.08022504
61	0x3b83fd5e	0.0040280065
62	0x3e760a9d	0.24027486
63	0xbc86c2b7	-0.01645027
64	0x3d185786	0.037192844
65	0x3dd874de	0.10569166
66	0x3e177667	0.1479126
67	0x3e58807d	0.21142764
68	0xbd9224ac	-0.07135901
69	0xbd21338a	-0.039355792
70	0x3de0be74	0.10973826
71	0xbd521fc2	-0.051299818
72	0x3cc48d8a	0.023993272
73	0x3d3ec475	0.046574075
74	0x3df24505	0.11829571
75	0xbe05dff0	-0.13073707
76	0x3e4bf3f0	0.19917274
77	0xbd861f59	-0.06548948
78	0xbe0fac14	-0.14030486
79	0xbe132be1	-0.14372207
80	0xbe15a4b6	-0.14613613
81	0x3d1adaa9	0.037806187
82	0xbd317839	-0.043327544
83	0xbd89c1d4	-0.06726423
84	0xbe40f20b	-0.18842332
85	0x3e120eb8	0.14263427
86	0x3db8cda6	0.09023599
87	0x3d784935	0.06061669
88	0x3da10ded	0.07863984
89	0xbb658095	-0.0035019268
90	0xbd1a5be1	-0.03768528
91	0x3d7a75b5	0.06114741
92	0xbd27cdad	-0.040967632
93	0x3c0846cd	0.0083176615
94	0xbe1035df	-0.1408305
95	0xbe235088	-0.15948689
96	0x3e3611ca	0.17780223
97	0x3e540b60	0.20707464
98	0x3e46a6bc	0.19399542
99	0x3e3e22d6	0.18567976
100	0x3df6cd29	0.1205085
101	0x3ca90977	0.020634396
102	0x3e1b3974	0.15158635
103	0xbc98596b	-0.018597325
104	0x3e53f52d	0.20698996
105	0x3e1180dc	0.14209312
106	0x3d0ce87f	0.034401413
107	0x3dcf2917	0.10115259
108	0x3e801fba	0.25024205
109	0x3deb17f5	0.11479179
110	0x3e5a8c0a	0.21342483
111	0x3e76465f	0.24050282
112	0xbd1730a4	-0.03691162
113	0x3ed4ffd4	0.4160143
114	0x3e8992b6	0.26869744
115	0x3e3e6070	0.18591475
116	0x3dab0999	0.0835144
117	0x3ef871ea	0.4852441
118	0xbd2a174b	-0.04152612
119	0x3e290f3a	0.16509715
120	0xbd15c19d	-0.036561597
121	0x3d855119	0.06509609
122	0xbd548ab0	-0.051890075
123	0x3e85a25f	0.26100442
124	0x3bc01223	0.005861537
125	0xbd86b33c	-0.06577155
126	0x3e91fad2	0.28511673
127	0xbdb0ce16	-0.08633058

lstm.bias_hh_l0 f4 [128]
0	0x3ec32354	0.3811289
1	0x3d225c9b	0.039639097
2	0x3e51000e	0.20410177
3	0x3cc56ea4	0.02410061
4	0x3e542507	0.2071725
5	0x3d83952a	0.06424935
6	0x3e02e7f6	0.12783799
7	0x3e1b9faa	0.15197626
8	0x3d8145cd	0.063121416
9	0xbd8dec7d	-0.06929872
10	0x3c9937fa	0.01870345
11	0x3e04adf0	0.12956977
12	0x3e4ff1c9	0.20307077
13	0xbd8df35c	-0.06931183
14	0x3da275e3	0.07932641
15	0x3e2c3e2c	0.16820592
16	0x3de5f3b4	0.11228123
17	0x3eec733f	0.46181676
18	0x3e8b2067	0.2717316
19	0x3d58b208	0.05290416
20	0x3e1ed1cb	0.15509717
21	0x3ebef89d	0.37299052
22	0x3e780e7b	0.24224274
23	0x3e38694c	0.18008918
24	0xbd8b0713	-0.06788459
25	0x3d2b7a0c	0.04186444
26	0x3df12c39	0.11776013
27	0x3e90cd4f	0.28281638
28	0xbe048435	-0.12941058
29	0xbdb1a708	-0.08674437
30	0x3d347df0	0.044065416
31	0x3e26e3cf	0.1629784
32	0x3e460e77	0.19341455
33	0xbd3be1e5	-0.045869727
34	0x3dbb2e5f	0.09139704
35	0x3e2bb6d3	0.1676896
36	0x3e430853	0.19046144
37	0x3e011c4c	0.1260845
38	0x3e260d3c	0.16215986
39	0xbc3aae8e	-0.011394156
40	0x3e6051d0	0.21906209
41	0x3db2cc79	0.08730406
42	0xbc90b1d5	-0.017662922
43	0x3daa058b	0.083018385
44	0x3e295a2e	0.16538307
45	0xbe7800aa	-0.24219003
46	0x3dd174c3	0.10227349
47	0xbd281d22	-0.04104341
48	0x3d6386f7	0.055548634
49	0x3dbb763d	0.091534115
50	0xbc23b4a7	-0.009991801
51	0x3d8fe035	0.07025186
52	0xbce8b9bf	-0.028408883
53	0xbcb01097	-0.021492286
54	0xbd6c7919	-0.057732675
55	0xbd978e2a	-0.074001625
56	0x3e041477	0.12898432
57	0x3d93d6ba	0.0721869
58	0x3b9423c4	0.004520865
59	0xbbab86a1	-0.005234555
60	0xbd0b5b4b	-0.03402261
61	0x3d373a43	0.044733297
62	0x3e01cab7	0.12674986
63	0xbce2855b	-0.02765148
64	0xbe7921e4	-0.24329334
65	0xbd7fc148	-0.062440187
66	0x3da5176a	0.080611065
67	0x3db54085	0.08850197
68	0xbdb78962	-0.089617506
69	0x3d429f10	0.047514975
70	0xbcc38255	-0.023865858
71	0xbd81d42c	-0.06339297
72	0xbd647283	-0.05577327
73	0x3cc0a667	0.023516847
74	0xbde945fe	-0.11390303
75	0x3cd92462	0.026506606
76	0x3e006059	0.12536754
77	0x3e2bb6f2	0.16769007
78	0xbdafecb3	-0.08590069
79	0xbe4091d8	-0.18805635
80	0x3d42cdf4	0.047559693
81	0x3e0d961a	0.1382679
82	0xbe147816	-0.14498934
83	0xbd36d2d0	-0.04463464
84	0x3d09c35c	0.033633575
85	0xbe127eaa	-0.14306131
86	0x3d3c8336	0.04602357
87	0xbde2c8cc	-0.11073455
88	0x3d3400aa	0.043945946
89	0x3d0dd8e3	0.034630667
90	0xbe067b04	-0.13132864
91	0xbe0cac33	-0.13737564
92	0xbd40c4e9	-0.04706279
93	0xbd6613e6	-0.05617132
94	0x3e117f0b	0.1420862
95	0xbe24f84f	-0.16110347
96	0x3e9325d6	0.28739804
97	0x3e8d0da7	0.27549478
98	0x3e5476ee	0.20748493
99	0xbdc7cd0e	-0.09755908
100	0x3eb605ba	0.35551244
101	0xbdf615ce	-0.12015878
102	0x3ca3c538	0.019991502
103	0x3e09d66c	0.13460702
104	0x3e5bab4f	0.21452068
105	0x3db5ae12	0.08871092
106	0x3deafb9d	0.11473773
107	0xbde902a8	-0.1137746
108	0x3e28d26f	0.16486524
109	0xbe031450	-0.12800717
110	0x3e06c88a	0.13162437
111	0x3e1c5d14	0.15269881
112	0xbc810e26	-0.015753817
113	0x3eddc9dd	0.43318072
114	0x3e0bf64a	0.1366817
115	0x3e3ad368	0.18244708
116	0x3dfd4369	0.12366373
117	0x3ea93fa9	0.3305638
118	0x3dedd6dc	0.11613247
119	0x3e43e084	0.19128615
120	0xbc5fca9b	-0.013659145
121	0x3e1e76f2	0.15475062
122	0x3def697b	0.11690041
123	0x3e83bd83	0.25730523
124	0xbd7696b2	-0.060202308
125	0x3d35345d	0.04423939
126	0x3e8b9266	0.2726013
127	0xbbe56ee0	-0.0070017427

lstm.weight_ih_l1 f4 [128, 32]
0	0xbb9f8cb0	-0.004869066
1	0x3d59db94	0.05318792
2	0x3ddf77dc	0.10911533
3	0xbe099a07	-0.13437663
4	0x3da053c4	0.07828477
5	0x3da53ce5	0.08068255
6	0xbe36ca1f	-0.1785054
7	0xbe39fa04	-0.1816178
8	0x3e1a10c4	0.15045458
9	0x3eb87fba	0.36034948
10	0x3e5a2ef4	0.21306974
11	0xbe6b6c40	-0.22990513
12	0xbe4dc9c2	-0.20096496
13	0xbdc82a4c	-0.097736925
14	0xbe3aeb2e	-0.18253776
15	0x3ea0cb7b	0.31405243
16	0xbd5c1848	-0.053734094
17	0xbd88b61c	-0.066753596
18	0xbe11dc87	-0.14244281
19	0x3d5c40ec	0.05377285
20	0x3e09ca86	0.13456163
21	0xbf2d44cd	-0.67683107
22	0xbe5c21bb	-0.21497242
23	0x3d0ba3d8	0.0340918
24	0xbbca1665	-0.0061672204
25	0xbedf9442	-0.436678
26	0xbd5a1057	-0.05323824
27	0xbd2eb738	-0.0426552
28	0x3e22078e	0.15823194
29	0x3c94a209	0.01814367
30	0xbe6f701c	-0.2338261
31	0xbe771660	-0.24129629
32	0xbe7820dc	-0.24231285
33	0x3ed73e26	0.42039603
34	0x3ef679bc	0.4813975
35	0xbbd24561	-0.006416962
36	0x3e5379ee	0.20651981
37	0x3d157d84	0.036496654
38	0xbd9d54fd	-0.07682226
39	0x3d69cf09	0.05708221
40	0x3ed4cd3e	0.41562837
41	0x3f19a40e	0.6001595
42	0xbe8c4868	-0.27398992
43	0xbe88632a	-0.26638156
44	0xbe2a32a6	-0.16620883
45	0x3e918669	0.2842286
46	0xbec56901	-0.38556674
47	0x3d2d8e23	0.04237188
48	0x3ed11cd3	0.40842304
49	0xbe3a3116	-0.18182787
50	0xbed4e17a	-0.41578275
51	0xbebd3973	-0.36957893
52	0x3e603202	0.21894076
53	0xbf080b43	-0.53142184
54	0x3d0985fe	0.03357505
55	0xbde530bb	-0.11190935
56	0x3f1221e8	0.57082987
57	0xbddc81f5	-0.10766975
58	0xbeafae08	-0.34312463
59	0xbe57573f	-0.21029375
60	0x3e6180f5	0.2202185
61	0x3eb772fe	0.3582992
62	0xbd662a60	-0.056192756
63	0xbea88e7f	-0.32921216
64	0x3b1b9a4a	0.0023743086
65	0x3e257a8b	0.16160028
66	0x3e306efe	0.1722984
67	0x3d6bf518	0.057606786
68	0xbd2c49e1	-0.042062644
69	0x3da53633	0.08066978
70	0x3daa7f8a	0.083251074
71	0x3d98e346	0.07465224
72	0x3e080fa3	0.13287215
73	0x3dcf2eac	0.10116324
74	0x3c3ba060	0.011451811
75	0xbe6937ac	-0.22775143
76	0x3d335a36	0.043787204
77	0x3ddcd9ca	0.107837275
78	0xbdc5ac39	-0.096519895
79	0x3e422ce6	0.1896244
80	0x3ca844ff	0.020540712
81	0xbdde0334	-0.10840455
82	0x3e29158b	0.16512124
83	0x3dbc5967	0.0919674
84	0x3e14250e	0.1446726
85	0x3e61fb00	0.22068405
86	0x3e3f7ad0	0.18699193
87	0xbe3676e4	-0.1781879
88	0x3e1d5ac0	0.1536665
89	0x3e5308a0	0.20608759
90	0xbd57d4cc	-0.052693173
91	0x3e5affad	0.21386595
92	0x3e2e5e6e	0.1702821
93	0x3e2800c8	0.16406548
94	0xbdb01d80	-0.08599377
95	0xbd8b9081	-0.06814671
96	0x3e2cc3cb	0.16871564
97	0x3e30d888	0.172701
98	0x3eceaac8	0.4036467
99	0xbecc5b3e	-0.39913362
100	0x3e6c0fc8	0.23052895
101	0x3ebc65bd	0.3679637
102	0xbe127c99	-0.14305343
103	0xbeadfd27	-0.33982202
104	0x3e8a8165	0.27051845
105	0x3ef20d9f	0.47276017
106	0xbefaac97	-0.489598
107	0xbe828ee1	-0.25499633
108	0xbec31abd	-0.38106337
109	0x3e3e4d67	0.18584214
110	0xbf0863b8	-0.5327716
111	0x3f14dd56	0.5815023
112	0x3dc17dee	0.09447847
113	0x3e4c276f	0.19936918
114	0xbeb37b1e	-0.35054868
115	0xbee19b56	-0.44063824
116	0x3ee5038a	0.44729263
117	0xbdbc8b73	-0.09206285
118	0x3e9f07b9	0.3106058
119	0xbe9f4416	-0.31106633
120	0x3eebe616	0.4607398
121	0xbe094211	-0.13404109
122	0xbe7ae1b0	-0.24500155
123	0x3ddeeaed	0.10884652
124	0x3e496b43	0.19669823
125	0x3ea8d69c	0.32976234
126	0x3e0dcf07	0.13848506
127	0xbed4aa49	-0.41536167
128	0x3f098ccc	0.53730464
129	0xbcfc4c67	-0.03079815
130	0x3ecfa0b3	0.4055229
131	0xbf1c474f	-0.6104631
132	0x3ee308b0	0.44342566
133	0x3f083b58	0.5321555
134	0xbd34c4e4	-0.044133082
135	0xbf04fe85	-0.51950866
136	0x3d5e9f4e	0.054351144
137	0x3e2c6588	0.16835606
138	0x3d5c44e3	0.053776633
139	0xbeab64a0	-0.33475208
140	0xbe468dde	-0.19390056
141	0x3e3cee36	0.18450245
142	0xbe447cb0	-0.1918819
143	0x3d51565c	0.05110775
144	0xbcc49507	-0.023996843
145	0x3ec74297	0.38917992
146	0xbe7a42e3	-0.24439578
147	0xbeee8acb	-0.46590266
148	0x3e2261ca	0.15857616
149	0xbf2c2797	-0.6724791
150	0x3e40fc74	0.18846303
151	0xbeaf35e8	-0.34220815
152	0x3e33a7ca	0.17544475
153	0x3ee45942	0.44599348
154	0xbea73520	-0.3265772
155	0xbe74d3bb	-0.23908894
156	0x3e8f5a9a	0.2799881
157	0x3efdbb91	0.49557164
158	0xbebaa1db	-0.3645161
159	0xbe616881	-0.22012521
160	0x3e484e8d	0.19561215
161	0xbd1df8dc	-0.03856741
162	0xbd385b09	-0.045008693
163	0xbd65df6c	-0.056121275
164	0x3e944e4b	0.28965983
165	0x3df9dee3	0.122007154
166	0x3cdbc689	0.026828067
167	0x3d375cc4	0.044766203
168	0x3d3ef34b	0.04661874
169	0xb8f2a346	-0.00011569871
170	0xbca533d0	-0.020166308
171	0x3c00ea10	0.007868305
172	0xbe16e9f1	-0.14737679
173	0x3c9f3d9a	0.019438554
174	0xbd768db0	-0.060193717
175	0xbc4cfe67	-0.012511826
176	0x3db00518	0.085947216
177	0xbe874b71	-0.26424745
178	0xbde4e22d	-0.11175952
179	0xbe759d5d	-0.2398581
180	0xbcda53ec	-0.026651345
181	0x3d93339d	0.07187579
182	0x3ce8d4f0	0.028421849
183	0x3d993219	0.074802585
184	0xbd9d18e1	-0.07670761
185	0xbed8c3c3	-0.42336854
186	0xbe3c1ba0	-0.18369913
187	0xbe3f6a78	-0.18692958
188	0xbde8cc99	-0.11367149
189	0x3c992e64	0.018698879
190	0x3d94fef8	0.07275194
191	0xbd74e6c9	-0.059790406
192	0xbe2675f0	-0.16255927
193	0x3e9a4662	0.30131823
194	0xbc29a258	-0.010353647
195	0x3e2f5012	0.17120388
196	0x3d7c29c6	0.061563276
197	0xbe4dc3b3	-0.20094185
198	0x3e2af2ba	0.16694155
199	0x3e8408c3	0.25787935
200	0x3ee4612b	0.44605383
201	0x3e23a54b	0.15981023
202	0xbeba8935	-0.36432806
203	0xbe5b0cc8	-0.21391594
204	0x3ec84c6e	0.3912081
205	0x3d41cbf5	0.04731365
206	0xbeb66df8	-0.35630774
207	0xbeabacf4	-0.3353039
208	0xbe7c6bb3	-0.24650459
209	0xbee451ec	-0.4459375
210	0xbda25dca	-0.07928045
211	0xbdd3809b	-0.10327264
212	0x3bf3194f	0.0074187885
213	0xbe8fe57e	-0.28104776
214	0x3de82a07	0.11336141
215	0xbe0a0a77	-0.13480555
216	0x3e929b5a	0.2863415
217	0xbca83273	-0.020531869
218	0x3b539d4d	0.0032289803
219	0xbec74323	-0.3891841
220	0xbe1e2827	-0.15445004
221	0xbde19ce0	-0.1101625
222	0x3e28c646	0.16481885
223	0xbb118846	-0.002220647
224	0x3ee437a4	0.445737
225	0x3ee0869a	0.43852693
226	0x3ed6201f	0.4182138
227	0xbd7c9036	-0.061660968
228	0x3cec3fef	0.02883908
229	0x3f0d4a1f	0.55191225
230	0x3dbfc553	0.093638085
231	0xbf195cc6	-0.59907186
232	0x3f011d78	0.5043559
233	0x3e2d8d48	0.16948426
234	0xbf222d77	-0.63350624
235	0xbebe8a27	-0.37214777
236	0xbe0467f0	-0.12930274
237	0x3e965a02	0.29365546
238	0xbeb065bb	-0.34452614
239	0xbe99df9b	-0.3005341
240	0xbe9d8660	-0.30766582
241	0x3eab7ae4	0.33492196
242	0xbf244d84	-0.6418078
243	0xbed35a71	-0.4127994
244	0x3e8ac132	0.2710052
245	0x3c37df39	0.011222654
246	0x3f076aa5	0.528971
247	0xbe8d99a8	-0.27656293
248	0x3f07f92c	0.5311458
249	0x3ee89338	0.4542482
250	0xbf2829ce	-0.6568879
251	0xbe8068e9	-0.2508004
252	0x3e86b9b6	0.2631356
253	0x3ec406aa	0.38286334
254	0xbe0be572	-0.13661745
255	0xbf0222dc	-0.5083444

lstm.weight_hh_l1 f4 [128, 32]
0	0xbd61c27c	-0.055117115
1	0x3d570ee3	0.05250443
2	0xbdf42584	-0.11921218
3	0x3e04b6f0	0.1296041
4	0xbe03fc2f	-0.12889169
5	0xbdae17e0	-0.085006475
6	0x3db0e232	0.08636893
7	0xbe80f36f	-0.25185725
8	0xbcbfaa4f	-0.02339664
9	0xbe453dac	-0.19261807
10	0xbe77d49a	-0.24202195
11	0x3e0fa2b6	0.14026913
12	0x3d142c82	0.03617526
13	0x3d93d4cd	0.07218323
14	0x3e2cb79f	0.16866921
15	0xbce74623	-0.028231686
16	0x3e4b2047	0.19836532
17	0xbe3b7517	-0.18306385
18	0xbe9fba4f	-0.3119683
19	0xbe5c40b7	-0.21509062
20	0xbe1f1b2c	-0.15537709
21	0xbe243569	-0.16036
22	0xbe8a9195	-0.27064195
23	0xbd680003	-0.056640636
24	0x3de8e00c	0.113708586
25	0xbe390ef8	-0.18072116
26	0xbe1f9edb	-0.15587942
27	0xbe0f9c4a	-0.14024463
28	0x3ecde5dd	0.40214434
29	0x3e80bb3d	0.2514285
30	0xbe8e8a67	-0.27839968
31	0xbd140895	-0.036140997
32	0xbec1cb07	-0.3785021
33	0xbdcf41b8	-0.10119957
34	0xbe9eea49	-0.3103812
35	0xbdd8692b	-0.10566934
36	0xbec2beac	-0.38036096
37	0xbe3fa91a	-0.18716851
38	0x3e6382a9	0.22217812
39	0xbda7b27e	-0.081883416
40	0x3e93120a	0.287247
41	0xbb07b195	-0.0020705212
42	0xbebf73ea	-0.37393123
43	0x3e22288e	0.15835783
44	0x3f0d48d8	0.55189276
45	0xbec088fe	-0.37604517
46	0x3ec31940	0.38105202
47	0xbe908dcb	-0.2823318
48	0x3d923553	0.07139077
49	0xbea643be	-0.32473558
50	0x3da36e57	0.0798003
51	0xbe290699	-0.16506423
52	0x3dd92954	0.10603586
53	0xbed78c40	-0.4209919
54	0xbe527109	-0.20550932
55	0x3da20efc	0.07913014
56	0x3d946583	0.07245924
57	0x3eb0ce61	0.34532455
58	0xbebd72e5	-0.3700172
59	0x3f19f0cf	0.6013307
60	0x3ef919e2	0.4865256
61	0x3eceb509	0.40372494
62	0xbf13ebbb	-0.5778157
63	0xbeb746e0	-0.3579626
64	0xbe93d706	-0.28874987
65	0x3b9d6298	0.004803013
66	0x3d34a6ce	0.04410439
67	0x3d4c1361	0.04982317
68	0xbdffca08	-0.12489706
69	0xbeab6622	-0.3347636
70	0x3b3f7b01	0.0029217603
71	0x3e5a41dd	0.21314187
72	0x3d06140b	0.03273396
73	0x3eeac323	0.45852003
74	0x3ca14053	0.019683992
75	0x3dd42f54	0.103605896
76	0x3a00422e	0.0004892674
77	0x3de57ccc	0.11205444
78	0x3e128232	0.14307478
79	0x3d92df7a	0.07171531
80	0x3d59e5f1	0.053197805
81	0xbe8c705e	-0.2742948
82	0xbe44f846	-0.19235334
83	0x3e19f7d0	0.15035939
84	0x3e945709	0.28972653
85	0xbd142322	-0.036166318
86	0xbd3bafeb	-0.045822065
87	0xbd833fca	-0.06408651
88	0xbde62cea	-0.112390354
89	0xbe9f8511	-0.3115621
90	0xbe769fae	-0.2408435
91	0x3e89d87a	0.2692297
92	0x3e324e27	0.17412625
93	0x3d984a2a	0.07436021
94	0x3d55e773	0.05222268
95	0xbe292471	-0.16517808
96	0xbee8002d	-0.45312634
97	0xbe0f2f35	-0.13982852
98	0xbe4f1e56	-0.20226416
99	0xbd5ee226	-0.05441489
100	0xbee95342	-0.45571333
101	0xbec585e6	-0.3857872
102	0xbc619d60	-0.013770431
103	0xbc32a783	-0.010904196
104	0x3e88920c	0.26673925
105	0xbd3d1ab1	-0.046168033
106	0xbf21797e	-0.6307601
107	0x3e82493b	0.25446495
108	0x3f3d54ab	0.7395732
109	0xbe0618c6	-0.13095388
110	0x3f0e73b6	0.5564531
111	0xbec3b190	-0.38221407
112	0x3df8fea7	0.12157946
113	0xbe5e9a12	-0.2173846
114	0x3e3ab515	0.1823314
115	0xbeadbe44	-0.33934224
116	0xbd16b2fd	-0.03679179
117	0xbe92a6aa	-0.2864278
118	0xbe1310fb	-0.14361946
119	0x3e7a9e0c	0.24474353
120	0x3ed68c63	0.41903982
121	0x3dbd51fa	0.092441514
122	0xbf304be4	-0.688658
123	0x3f0fb213	0.56131095
124	0x3f2fdb77	0.6869425
125	0x3ea18ad3	0.31551227
126	0xbf261a0d	-0.648835
127	0xbf2aaf1b	-0.6667344
128	0xbea512e5	-0.32240978
129	0xbda2c1d7	-0.07947128
130	0x3e97c407	0.29641744
131	0x3eb22cc3	0.34799775
132	0x3e4471f1	0.1918409
133	0x3e01f213	0.1269
134	0xbf1a7853	-0.6033985
135	0xbe4380da	-0.19092122
136	0x3f19521a	0.598909
137	0xbf0acfaa	-0.5422312
138	0xbefe9938	-0.49726272
139	0x3e1ff7cd	0.15621872
140	0x3db1dcfb	0.08684727
141	0x3eba644b	0.36404642
142	0x3f3cd285	0.7375873
143	0xbefbcd61	-0.4918013
144	0x3ebdc155	0.37061563
145	0xbf3c6b0b	-0.73600835
146	0x3e86c5c6	0.26322764
147	0xbf0fd78f	-0.5618829
148	0xbec5e0d4	-0.38648093
149	0xbeb31655	-0.34977975
150	0x3e50d9be	0.20395562
151	0x3f91e033	1.1396545
152	0x3ed3e2e9	0.41384056
153	0x3e1e6184	0.15466887
154	0xbee35277	-0.44398853
155	0x3e6b27c0	0.22964382
156	0x3e8a84e9	0.27054527
157	0x3f0585e2	0.52157414
158	0xbefaeddc	-0.49009597
159	0xbf10e5f1	-0.5660086
160	0xbe5a42a5	-0.21314485
161	0x3c9606c0	0.018313766
162	0x3ca6e361	0.020372095
163	0x3e5867db	0.21133368
164	0x3e83d5f5	0.25749174
165	0xbe82d7ee	-0.25555366
166	0x3e8a0b75	0.26961866
167	0xbe971b9f	-0.2951326
168	0xbda5758f	-0.08079063
169	0x3daa3eb0	0.08312738
170	0x3c6c1f07	0.014411694
171	0x3e61d2eb	0.22053115
172	0x3e77747c	0.24165529
173	0x3ced901f	0.028999386
174	0x3e4613f3	0.19343548
175	0xbe651195	-0.22369988
176	0x3e5f4aa3	0.21805815
177	0xbdfa0885	-0.12208656
178	0xbe14405f	-0.1447768
179	0x3dc03e8a	0.093869284
180	0xbd5a53e6	-0.053302668
181	0xbe1e9a02	-0.15488437
182	0xbe34b57c	-0.17647356
183	0x3e8a7ed9	0.27049902
184	0x3c779f91	0.015113727
185	0x3d9b8962	0.07594563
186	0xbbf1d030	-0.007379554
187	0xbe6128c1	-0.21988203
188	0x3e24c403	0.16090398
189	0xbdbdd892	-0.09269823
190	0xbe9782ee	-0.2959208
191	0xbd4ddc3b	-0.050258856
192	0xbdd66086	-0.10467629
193	0xbd9b2d5b	-0.0757701
194	0xbef12c9d	-0.4710435
195	0xbe145e7f	-0.14489172
196	0xbe928d78	-0.28623557
197	0xbec992b7	-0.39369747
198	0xbea21f39	-0.31664446
199	0x3d44ef53	0.0480798
200	0x3e462545	0.19350155
201	0x3f137814	0.576051
202	0xbdf3a70e	-0.118970975
203	0xbd5fd378	-0.05464503
204	0xbdec2902	-0.11531259
205	0xbe54341a	-0.20723
206	0x3de41b38	0.11138004
207	0xbe987d0f	-0.29782912
208	0x3e132600	0.14369965
209	0xbda5bdb6	-0.08092825
210	0x3e491d07	0.1963998
211	0xbe8ce293	-0.27516612
212	0x3d87c3f8	0.06629175
213	0x3d819b8e	0.06328498
214	0xbf48919b	-0.78347176
215	0xbd9aa4b7	-0.07550948
216	0x3e06acc4	0.13151842
217	0xbf1efbf2	-0.6210319
218	0xbe67ffd2	-0.22656181
219	0x3d1a38a4	0.037651673
220	0x3e980316	0.29689854
221	0x3db6e553	0.08930459
222	0xbe8931ec	-0.267959
223	0xbea3dfea	-0.3200677
224	0xbea7ceb7	-0.32774898
225	0x3e05796c	0.130346
226	0xbea2baa8	-0.31783032
227	0x3ce69c0b	0.028150579
228	0xbefa1581	-0.4884453
229	0xbf2a4d05	-0.6652377
230	0x3d042ab7	0.0322673
231	0xbf0ea765	-0.55724174
232	0x3ef96467	0.48709413
233	0x3d004a63	0.03132094
234	0xbee11a58	-0.4396541
235	0x3f14fa13	0.5819408
236	0x3f238899	0.63880306
237	0xbe3a9a55	-0.18222935
238	0x3e777c1f	0.24168442
239	0xbf0495f9	-0.5179134
240	0xbc108dfd	-0.008822915
241	0x3e142cdf	0.14470242
242	0x3e74e902	0.2391701
243	0xbebf036c	-0.37307298
244	0xbc80e2e6	-0.015733194
245	0xbf16822b	-0.5879237
246	0xbdd4e18e	-0.10394584
247	0x3f037982	0.5135728
248	0x3ede9e43	0.4348012
249	0xbe46b3ab	-0.19404475
250	0xbf3d9494	-0.7405484
251	0x3e93cfad	0.28869382
252	0x3e7d7ee9	0.24755444
253	0x3f1f509f	0.62232393
254	0xbf2d1821	-0.6761494
255	0xbf15774e	-0.5838517

lstm.bias_ih_l1 f4 [128]
0	0xbca08127	-0.019592835
1	0x3efb705b	0.49109158
2	0x3ea3a107	0.31958792
3	0x3ec2624d	0.37965623
4	0x3ea8a0b2	0.329351
5	0xbc62bfdd	-0.013839689
6	0x3e165c78	0.14683712
7	0x3f111311	0.5666972
8	0x3e000114	0.12500411
9	0x3ec9fb4c	0.39449537
10	0x3dbdb600	0.09263229
11	0x3e60c383	0.21949582
12	0x3dfa29d4	0.12215009
13	0x3f0b9292	0.54520524
14	0x3e5d2b50	0.21598554
15	0x3da17d3e	0.07885216
16	0x3e9e3cad	0.30905667
17	0x3e9fb6fc	0.31194293
18	0xbce2a53c	-0.02766668
19	0x3ed604f4	0.41800654
20	0x3eb8a252	0.3606134
21	0x3e0f55c8	0.13997567
22	0x3e02bc17	0.12767063
23	0x3ea8e885	0.32989898
24	0xbd2b6f39	-0.041854117
25	0x3e1fef74	0.15618688
26	0x3ebc3d22	0.3676539
27	0x3e858aa4	0.26082337
28	0x3ecfe5b0	0.40604925
29	0x3e609b13	0.21934156
30	0x3b0e765b	0.0021738026
31	0x3ea202f2	0.31642872
32	0x3e646b92	0.2230666
33	0xbe1003ad	-0.14063902
34	0x3e23f49b	0.16011278
35	0xbe3504dc	-0.17677635
36	0xbbd42799	-0.006474447
37	0x3da6d8bc	0.081468076
38	0x3d663528	0.056203038
39	0xbdcce0b9	-0.100038
40	0x3e274d6a	0.16338125
41	0xbd897ca4	-0.067132264
42	0x3e2de04e	0.16980097
43	0x3d00f108	0.031479865
44	0x3d4fccb5	0.050732333
45	0xbb43fc57	-0.0029905045
46	0xbde95c7d	-0.11394594
47	0x3e9619e2	0.29316622
48	0x3e0ff7ae	0.14059326
49	0xbe53e904	-0.20694357
50	0xbc8fdb3f	-0.0175606
51	0x3de504ee	0.11182581
52	0x3ce8f4b9	0.028437005
53	0x3dc0c0fc	0.09411809
54	0x3e226655	0.15859349
55	0x3d98d806	0.07463078
56	0x3ca3b08d	0.019981647
57	0xbd6a84ee	-0.057255678
58	0x3e887cc5	0.26657692
59	0x3dc6485d	0.09681771
60	0x3e370c2c	0.17875737
61	0x3e36378a	0.17794624
62	0x3dc8bfff	0.09802245
63	0xbdef1e5d	-0.11675713
64	0x3d843889	0.06456096
65	0xba7ad901	-0.0009569079
66	0xbd2a0ecd	-0.04151802
67	0x3e2c3761	0.16818
68	0xbe5596c8	-0.208583
69	0xbdd0779b	-0.10179063
70	0xbd3732a2	-0.04472602
71	0xbe252552	-0.16127518
72	0x3e620186	0.22070894
73	0xbd8426d7	-0.064527206
74	0xbdc297c1	-0.09501601
75	0xbddd6f52	-0.10812248
76	0xbcaa2c1c	-0.020772986
77	0xbdc7052d	-0.09717784
78	0x3daa1847	0.08305412
79	0xbbe8c801	-0.0071039204
80	0x3e18c90d	0.14920445
81	0xbe312360	-0.1729865
82	0x3d594ab2	0.05304975
83	0xbe5ea8bd	-0.21744056
84	0x3e05ed7d	0.13078876
85	0xbe3ebaec	-0.18625993
86	0x3dbf7f37	0.09350436
87	0xbbe4de71	-0.006984525
88	0xbd800bf3	-0.06252279
89	0x3c2de413	0.010613459
90	0xbb0a15ed	-0.0021070198
91	0x3e4cb0fb	0.19989388
92	0xbd59491d	-0.053048242
93	0x3e75dd77	0.24010263
94	0xbe16b2bb	-0.14716618
95	0x3becca47	0.007226262
96	0x3e3e6eaf	0.1859691
97	0x3ebdd66b	0.3707765
98	0xbd6eaf59	-0.058272693
99	0x3ee6331d	0.4496087
100	0x3e96098b	0.29304156
101	0xbbccb4b3	-0.006247127
102	0x3e1f4c95	0.15556557
103	0x3ea4a5bb	0.32157692
104	0x3e93d45e	0.2887296
105	0x3db47af8	0.08812517
106	0x3e032ed7	0.12810837
107	0x3c50d7eb	0.012746791
108	0x3c3e7799	0.011625194
109	0x3ea6e01a	0.3259285
110	0x399303ad	0.00028040764
111	0x3d831423	0.06400325
112	0x3e30ec39	0.17277612
113	0x3ec2b0f9	0.38025644
114	0x3e40f50a	0.18843475
115	0x3e0a85f9	0.13527669
116	0x3eff47e4	0.49859536
117	0x3ed6ce90	0.4195447
118	0x3e902c52	0.28158814
119	0x3df54dd2	0.11977734
120	0x3db73e7e	0.08947466
121	0x3e4e8017	0.2016605
122	0x3e776053	0.24157839
123	0x3f0fe12b	0.56202954
124	0x3d955caf	0.072930686
125	0x3e21cb72	0.15800264
126	0x3d16993b	0.036767226
127	0x3e87c1fa	0.2651518

lstm.bias_hh_l1 f4 [128]
0	0x3e10c598	0.14137876
1	0x3ea35898	0.3190353
2	0x3e18b8b5	0.1491421
3	0x3e970ff7	0.29504368
4	0x3ef99172	0.48743778
5	0xbe076788	-0.13223088
6	0x3d86588a	0.06559856
7	0x3ecf7b4e	0.40523762
8	0x3e9775b0	0.29581976
9	0x3ee6c4af	0.45071933
10	0x3d82b335	0.06381837
11	0xbdbdaf7e	-0.09261988
12	0x3e670e97	0.2256416
13	0x3f00c734	0.5030396
14	0x3e207fc0	0.15673733
15	0x3e4c3699	0.19942702
16	0x3ef64d07	0.48105642
17	0x3f044943	0.5167429
18	0xbd51e86a	-0.051247038
19	0x3e7ae7e1	0.24502517
20	0x3eecf8a3	0.46283445
21	0x3e721f93	0.23644857
22	0x3e679dd6	0.22618803
23	0x3eb373a4	0.35049164
24	0x3d3b4b74	0.045726255
25	0x3ce4743d	0.027887458
26	0x3eea0b80	0.457119
27	0x3f0fc37b	0.56157655
28	0x3e9e74c5	0.30948463
29	0x3de2aeef	0.11068522
30	0x3e0ab02e	0.1354377
31	0x3ea1f300	0.31630707
32	0x3e416b68	0.18888628
33	0xbdcf1eb1	-0.10113276
34	0x3e6dee00	0.23235321
35	0xbda2d738	-0.07951206
36	0x3df2b0ae	0.11850105
37	0x3d279083	0.0409093
38	0xbc8160b7	-0.015793188
39	0x3da0a644	0.07844213
40	0x3d299c15	0.041408617
41	0x3dd2e0eb	0.10296806
42	0xbdfb24c0	-0.12262869
43	0xbc2d4bce	-0.010577155
44	0x3d8be1e5	0.06830195
45	0xbb63c492	-0.0034754616
46	0x3d98c0e2	0.074586645
47	0x3e3a2757	0.1817907
48	0xbd9de2c0	-0.07709265
49	0x3da4998f	0.080371015
50	0xbdefb263	-0.117039464
51	0x3e181d14	0.14854842
52	0x3d9013c0	0.07035017
53	0x3d7df71c	0.06200324
54	0x3d7cd2db	0.061724525
55	0xbd4b042d	-0.04956453
56	0xbdb853ba	-0.090003446
57	0xbd75e9e6	-0.060037516
58	0x3c44845d	0.0119944485
59	0x3e00b9d8	0.12570894
60	0x3cbc72b0	0.023003906
61	0xbd11d65d	-0.035604823
62	0x3e14413d	0.14478011
63	0x3db97e0e	0.09057246
64	0xbe1f7053	-0.15570192
65	0x3dacb34f	0.08432638
66	0x3df1e726	0.11811666
67	0x3d9afc67	0.07567673
68	0x3da6aada	0.08138056
69	0x3c1394c5	0.009007637
70	0xbe046f22	-0.12933019
71	0x3e381602	0.17977145
72	0x3d503dc1	0.050840143
73	0x3e488bc6	0.1958457
74	0xbc30bbf7	-0.010787002
75	0x3c8d270b	0.017230531
76	0x3d64fea0	0.05590689
77	0x3dd2a950	0.102862
78	0xbdb65b86	-0.089041755
79	0x3d0a17e2	0.033714183
80	0x3de5140d	0.11185465
81	0x3de03e69	0.10949404
82	0xbd645102	-0.055741318
83	0x3dd55386	0.104163215
84	0xbe24e0f5	-0.1610144
85	0xbe432750	-0.19057965
86	0xbd90ff4a	-0.070799425
87	0xbe165e46	-0.146844
88	0x3bf35462	0.0074258307
89	0x3e19f457	0.15034615
90	0xbda65ceb	-0.081231914
91	0xbc4c0ea4	-0.0124546625
92	0xbdaaa6f1	-0.08332623
93	0x3dc45e16	0.09588258
94	0x3d59306e	0.0530247
95	0xbdd9848a	-0.10620983
96	0x3e55dbd1	0.20884635
97	0x3ec2d9af	0.38056704
98	0x3e13a84f	0.14419673
99	0x3f17fe29	0.5937219
100	0x3ec3913b	0.3819674
101	0xbd839b5c	-0.06426117
102	0x3e86cbc2	0.2632733
103	0x3ecec8fe	0.4038772
104	0x3e48e902	0.19620135
105	0x3e854f91	0.26037267
106	0xbd64fa1a	-0.055902578
107	0x3d3f81de	0.04675471
108	0x3e0b1d38	0.13585365
109	0x3e7a6890	0.2445395
110	0x3e499f67	0.19689713
111	0x3e1329e6	0.14371452
112	0x3e2a90db	0.1665682
113	0x3ea1ac8b	0.31576952
114	0x3e1ac49a	0.1511406
115	0x3ed1d340	0.40981483
116	0x3ed02e52	0.4066034
117	0x3e813c17	0.25241157
118	0xbcdb9522	-0.02680451
119	0x3e321ef5	0.17394622
120	0x3df83aee	0.12120615
121	0x3e418ada	0.18900624
122	0x3e078868	0.13235629
123	0x3f0af50c	0.5428016
124	0x3ea6ab26	0.3255245
125	0x3dfc2aab	0.12312826
126	0x3eacc01f	0.33740327
127	0x3e8e4fa7	0.27795145

fc.weight f4 [2, 32]
0	0xbded0471	-0.11573113
1	0xbf74d8cd	-0.9564331
2	0x3e87b8b9	0.2650812
3	0xbfab721f	-1.3394202
4	0xbf268fb3	-0.6506302
5	0xbdb30181	-0.08740521
6	0xbedfa1f2	-0.43678242
7	0x3eed601d	0.4636239
8	0xbe8f3699	-0.27971342
9	0x3f1859a2	0.5951177
10	0xbcb9bd33	-0.022673225
11	0x3f0992b9	0.53739506
12	0x3e8cdb2f	0.27510974
13	0xbf9aa4ec	-1.208158
14	0xbc104aa5	-0.008806859
15	0xbd884320	-0.06653428
16	0xbf406464	-0.75153184
17	0x3fd51578	1.6647177
18	0x3e77e915	0.24210007
19	0x3f05a8f3	0.5221092
20	0x3f322c32	0.69598687
21	0x3ec95270	0.39320707
22	0xbe6b0bfa	-0.22953787
23	0x3ec8fcc6	0.3925535
24	0x3ecf5c30	0.4050002
25	0xbdf4ab34	-0.11946717
26	0xbe03c989	-0.12869848
27	0x3eb8fe09	0.36131313
28	0xbf1873c5	-0.5955165
29	0x3ccb871d	0.0248447
30	0x3e909452	0.2823816
31	0xbefdce90	-0.49571657
32	0x3e9d464d	0.30717698
33	0x3f794469	0.9737001
34	0x3d34da0d	0.044153262
35	0x3fbca54d	1.4737946
36	0x3f1e3cd1	0.6181155
37	0x3e3c5569	0.18391956
38	0x3e7dc689	0.24782766
39	0xbf091515	-0.53547794
40	0x3e8baa11	0.27278188
41	0xbed74da9	-0.42051437
42	0xbd229d72	-0.039700933
43	0xbef6edf3	-0.48228416
44	0xbe4a203b	-0.19738857
45	0x3f84f224	1.0386395
46	0xbd10351b	-0.035206895
47	0x3ddc4efd	0.10757253
48	0x3f56edee	0.839568
49	0xbfd51886	-1.6648109
50	0xbeaa47f9	-0.33258036
51	0xbeda8f6a	-0.4268754
52	0xbf2fba73	-0.68643874
53	0xbf03b2bc	-0.514446
54	0x3e5398bb	0.20663731
55	0xbf132f6e	-0.57494247
56	0xbeb2bbff	-0.34909055
57	0x3dbd836b	0.092535816
58	0x3ebc334c	0.36757886
59	0xbf1fb07a	-0.62378657
60	0x3f076ce6	0.5290054
61	0x3e8e2d59	0.27768973
62	0xbf02c815	-0.5108655
63	0x3efe92d6	0.49721402

fc.bias f4 [2]
0	0xbdf43de9	-0.11925871
1	0xbd666a7c	-0.056253895
