weights/rnn_1000.pth (torch, 15907 bytes, 10 tensors)

rnn.weight_ih_l0 f4 [32, 8]
-0.21569033 -0.11257392 0.014537185 -0.23853135 0.2264525 0.1293304 -0.20150523 -0.11409001
0.17999111 -0.10801554 0.30584872 -0.12742497 -0.12120585 -0.03400043 0.10919804 -0.08625394
-0.08168309 -0.1870517 -0.12997793 -0.07715476 0.18638498 -0.18077934 0.35496318 -0.3411756
-0.07494076 -0.11469937 -0.21112414 0.29946062 -0.071847424 -0.056949608 -0.16656137 -0.032362707
-0.09062016 0.17807457 0.212419 0.15488142 0.1369264 -0.11979103 -0.12168864 0.03333552
0.2471361 0.17462358 0.012647303 0.006659775 -0.065778434 0.027677448 -0.18686126 0.22578436
-0.2425649 -0.045779362 -0.11289397 0.133595 -0.16311286 0.291603 -0.10506595 -0.17002125
0.069917925 0.059885535 0.18060555 0.10388179 -0.057188764 -0.1356373 0.20261428 -0.120127186
0.13200228 -0.18113874 0.048389535 0.0011492582 0.11423101 0.22469443 -0.023355301 -0.2021423
-0.0876981 -0.3827191 0.018883638 -0.06954131 -0.23178896 -0.03692515 0.24929917 -0.08310455
-0.129179 0.14415263 0.23869905 -0.12803243 -0.046200663 -0.12024657 -0.3103581 0.15829648
0.22390267 -0.00016495897 -0.04607473 0.09132011 -0.2603368 -0.36665723 0.08572906 0.12938905
0.015993705 -0.22663923 0.08567379 0.08651259 0.07543578 0.12168687 0.070518196 0.06183237
-0.04594622 -0.1879971 -0.08730862 0.058793962 -0.10942801 0.1644185 -0.029754614 0.039968636
-0.10176954 0.22329643 0.06326273 -0.1020785 -0.0055204877 -0.23126802 0.39691067 0.025721243
-0.18469153 0.16243266 0.10010303 0.051233456 -0.079747334 0.3694771 0.23198646 -0.09536467
-0.11445463 -0.31526092 0.028731007 0.27893093 0.03353009 -0.2892024 -0.14219192 -0.005370697
-0.18317716 -0.23738317 0.006407848 0.2741488 0.096324906 -0.40438905 0.0015275542 -0.12918176
0.15275854 0.117072195 -0.18494193 -0.06534343 -0.08117452 0.10028898 -0.23233327 -0.0016963128
-0.17868017 0.05682726 0.10438278 0.23477697 -0.06428796 -0.31059748 0.18482667 0.12369899
-0.06349835 0.0034784677 0.16712391 0.077030286 0.077141136 0.15189049 0.14349945 0.31130448
0.103763826 0.10629373 -0.264238 0.0060399277 -0.095260665 -0.15975548 -0.06822257 -0.08034528
0.286181 -0.042354047 -0.30646104 -0.20209715 0.15460066 -0.1605192 0.010405668 0.0010145538
0.2374507 0.16791165 0.19940752 0.18264681 -0.19976507 0.088566005 -0.25132525 -0.10989953
0.058481663 0.08074788 0.1570102 0.104429655 -0.19026004 0.07459869 -0.2274558 -0.18517491
-0.250705 -0.33327192 -0.24986105 -0.031486884 -0.06124714 0.014679365 0.12850013 0.044135075
0.0034637759 -0.20509002 0.24392268 -0.18732381 0.017496333 -0.25515792 0.14040919 -0.02708618
-0.29643136 0.1842572 0.11342235 -0.032638084 -0.05448467 -0.052628003 0.045095477 0.039330192
0.26192993 0.035247665 0.29870656 -0.03806096 0.18322918 -0.40587583 -0.0015340016 -0.033067327
-0.07901062 0.16944146 -0.21228872 0.01508076 0.15281734 -0.047298294 0.12030194 -0.3124964
-0.1012863 -0.0996862 -0.09340973 -0.08911272 0.104372755 0.19403417 -0.465751 0.0933335
-0.18775181 0.07142246 -0.09967294 -0.1651859 0.02309115 -0.20309661 0.20958507 -0.24687004
00000000: eddd 5cbe 288d e6bd 602d 6e3c 9041 74be
00000010: 2ae3 673e 306f 043e 6357 4ebe 06a8 e9bd
00000020: 974f 383e 4037 ddbd 3498 9c3e b17b 02be
00000030: c63a f8bd 0944 0bbd 39a3 df3d e8a5 b0bd
00000040: 7749 a7bd 7b8a 3fbe ef18 05be 5103 9ebd
00000050: b4db 3e3e 381e 39be bcbd b53e 91ae aebe
00000060: 8b7a 99bd 81e7 eabd ed30 58be e752 993e
00000070: be24 93bd fe43 69bd 108f 2abe c28e 04bd
00000080: 1097 b9bd 2e59 363e 5e84 593e 3c99 1e3e
00000090: 6f36 0c3e 0055 f5bd e537 f9bd d48a 083d
000000a0: 3f11 7d3e 86d0 323e a236 4f3c 3e3a da3b
000000b0: d8b6 86bd d1bb e23c 8f58 3fbe 0434 673e
000000c0: ef62 78be 2483 3bbd f434 e7bd 21cd 083e
000000d0: 0f07 27be fd4c 953e d12c d7bd 0d1a 2ebe
000000e0: 2131 8f3d 894a 753d a9f0 383e fabf d43d
000000f0: c43e 6abd 81e4 0abe 1e7a 4f3e 3e05 f6bd
00000100: 9b2b 073e 6f7c 39be 1b34 463d b5a2 963a
00000110: f3f1 e93d 4c16 663e 9e53 bfbc 64fe 4ebe
00000120: 109b b3bd c2f3 c3be dcb1 9a3c ad6b 8ebd
00000130: 165a 6dbe d33e 17bd 4848 7f3e b832 aabd
00000140: 8047 04be bf9c 133e 866d 743e ef1a 03be
00000150: e83c 3dbd d543 f6bd 42e7 9ebe 7918 223e
00000160: be46 653e d6f8 2cb9 dbb8 3cbd 0a06 bb3d
00000170: dd4a 85be 7fba bbbe b892 af3d 907e 043e
00000180: 3b05 833c 1d14 68be bd75 af3d 832d b13d
00000190: 137e 9a3d f736 f93d d86b 903d f043 7d3d
000001a0: 1b32 3cbd 5082 40be ddce b2bd f0d1 703d
000001b0: cb1b e0bd 535d 283e f3bf f3bc 27b6 233d
000001c0: 8c6c d0bd d2a7 643e e48f 813d 880e d1bd
000001d0: 35e5 b4bb 86d1 6cbe e037 cb3e 5bb5 d23c
000001e0: c71f 3dbe bf54 263e d102 cd3d 2cda 513d
000001f0: 9252 a3bd 1a2c bd3e dc8d 6d3e 8d4e c3bd
00000200: 3067 eabd e169 a1be 4a5d eb3c 09d0 8e3e
00000210: d956 093d 5612 94be c29a 11be acfc afbb
00000220: cb92 3bbe 9314 73be edf8 d13b 3b5d 8c3e
00000230: fe45 c53d 150c cfbe 3738 c83a 3948 04be
00000240: bc6c 1c3e 8cc3 ef3d 6b61 3dbe c7d2 85bd
00000250: d43e a6bd 4f64 cd3d c6e8 6dbe d056 deba
00000260: eff7 36be b3c3 683d a4c6 d53d 6069 703e
00000270: 68a9 83bd a206 9fbe 3443 3d3e e555 fd3d
00000280: 6c0b 82bd 01f7 633b 8822 2b3e 0ec2 9d3d
00000290: 2cfc 9d3d 2e89 1b3e 85f1 123e 4d63 9f3e
000002a0: 2182 d43d 87b0 d93d 344a 87be 96ea c53b
000002b0: 0618 c3bd f196 23be 46b8 8bbd 118c a4bd
000002c0: 5186 923e 707b 2dbd 76e8 9cbe 8ef2 4ebe
000002d0: a34f 1e3e 255f 24be 897c 2a3c c7fa 843a
000002e0: 4726 733e 08f1 2b3e 7c31 4c3e c407 3b3e
000002f0: 378f 4cbe 1862 b53d b4ad 80be 0113 e1bd
00000300: 788a 6f3d 255f a53d 48c7 203e 37df d53d
00000310: 87d3 42be 33c7 983d 2cea 68be 7e9e 3dbe
00000320: 685c 80be 9ea2 aabe 93db 7fbe 64f8 00bd
00000330: 48de 7abd b881 703c 8a95 033e fbc6 343d
00000340: 8400 633b 1e03 52be dec6 793e d0d1 3fbe
00000350: 7854 8f3c 0fa4 82be 6dc7 0f3e d6e3 ddbc
00000360: dac5 97be ebad 3c3e fa49 e83d 83af 05bd
00000370: 512b 5fbd 7690 57bd 09b6 383d b218 213d
00000380: ae1b 863e db5f 103d 11f0 983e cfe5 1bbd
00000390: 6ea0 3b3e f5ce cfbe 8d10 c9ba 9b71 07bd
000003a0: 52d0 a1bd 1082 2d3e 3762 59be 4b15 773c
000003b0: 267c 1c3e dbbb 41bd dd60 f63d 87ff 9fbe
000003c0: 316f cfbd 4728 ccbd 9a4d bfbd bb80 b6bd
000003d0: 62c1 d53d e5b0 463e ea76 eebe a225 bf3d
000003e0: 0342 40be f045 923d 5421 ccbd 7e26 29be
000003f0: a729 bd3c 8ff8 4fbe 789d 563e 80cb 7cbe

rnn.weight_hh_l0 f4 [32, 32]
-0.12318665 0.18694864 -0.03338112 -0.08250903 -0.015111928 0.06678412 -0.18321867 0.14028084
0.17964551 -0.1634567 0.01446633 0.17892566 -0.214175 -0.049136624 0.069667436 -0.08565897
0.02276434 -0.26106176 -0.1589927 -0.028243853 -0.054029055 0.1294372 -0.054734822 -0.30334643
-0.19673322 0.05700695 0.06630939 0.01814835 -0.19582355 0.14620073 -0.2315028 -0.06906905
-0.25621134 -0.06689892 -0.060182706 0.008427214 -0.080072515 0.13502859 -0.26005486 -0.009431611
-0.12831032 -0.16128163 -0.0069244006 0.08531466 0.11279198 0.084677346 0.2430048 -0.060483173
-0.027134465 -0.09753634 -0.11133676 0.09293813 -0.030875202 -0.14519352 -0.3352492 -0.24223514
0.03398753 0.011914104 -0.04625036 -0.06227044 0.097716644 -0.020621488 0.022110103 0.01630067
0.12257905 0.07059155 -0.07715417 -0.0067881625 0.11958787 -0.081573285 0.015891498 0.102084816
0.26935935 -0.06536414 -0.17393076 -0.19981915 0.13779908 -0.15712474 -0.19865245 0.0062505123
-0.10444322 0.13799092 -0.10547277 -0.32589635 0.026832966 0.111481264 0.04579179 0.033203863
-0.03557202 -0.11718298 -0.20633 -0.29640815 -0.14473875 0.018375631 0.09295764 0.045403514
0.12553698 0.23985608 -0.1513673 -0.1492388 -0.14218523 0.05266202 0.09174676 0.01996655
0.0037570093 -0.120145656 -0.23887035 -0.027253525 0.06524558 0.047708947 -0.06338888 -0.09789616
-0.26465046 0.1077633 -0.10196157 0.068458326 -0.0020116733 0.08005016 0.21679474 0.13077764
-0.18655564 -0.0469808 0.16223212 -0.3048185 -0.09800065 -0.14431079 -0.10657811 0.17523097
-0.087517895 0.1746003 0.22408856 0.09576852 -0.16420156 0.06984304 -0.04863371 0.17814398
0.062324617 0.17952006 0.12648845 -0.2282697 0.07298981 0.10683902 0.01901362 -0.23396443
-0.05241059 -0.14003386 0.044551674 0.19404493 0.02944869 0.15575835 0.13322803 -0.04969443
-0.09318923 -0.1685703 0.38033906 0.16385536 0.11910253 -0.084017284 0.12624323 -0.19521056
0.15784116 0.21206945 -0.13841917 -0.1927175 0.38725442 -0.10614466 0.27822927 0.015508013
0.11484406 -0.052247595 0.026440071 -0.26244158 -0.020011984 -0.044308685 -0.0770092 0.3484049
-0.19422583 0.113848545 -0.25675014 -0.12509269 0.16385634 -0.2173559 -0.18641584 0.11207034
-0.2485083 -0.16848083 0.061147835 0.19006816 -0.012087781 0.09060476 -0.20125054 -0.033500616
-0.18643984 0.14576025 -0.060809456 -0.23727491 -0.12279769 0.105488606 -0.15771931 0.15146081
0.22374474 -0.07886138 -0.25441632 0.042721316 0.024888448 -0.042059544 0.086443186 0.18178259
0.011993031 -0.27820602 0.13146327 0.016493117 -0.14521347 -0.08894571 0.090986356 0.06754737
0.119248845 0.079436764 0.20877954 0.0031758458 0.09741668 0.1329508 -0.20534359 -0.17222145
0.058568798 0.3585273 -0.18492515 -0.13914113 0.04960965 -0.14039434 -0.13044466 0.14981909
0.021639528 0.10526221 -0.020787884 -0.20047738 0.19949558 -0.07151346 0.13980666 0.23085387
0.04676221 -0.04897968 -0.12684305 -0.17372875 -0.17807087 -0.23546535 0.019077787 0.2371325
0.22856212 -0.07478546 0.081207 -0.0063916533 -0.0022724373 0.02788352 -0.044546545 -0.061518162
00000000: 4849 fcbd 776f 3f3e a4ba 08bd 7ffa a8bd
00000010: 0598 77bc 1dc6 883d ad9d 3bbe c8a5 0f3e
00000020: fef4 373e 3161 27be 3004 6d3c 4a38 373e
00000030: b150 5bbe 7c43 49bd cdad 8e3d f86d afbd
00000040: 487c ba3c e3a9 85be fbce 22be a75f e7bc
00000050: 924d 5dbd 2f8b 043e 9f31 60bd 3950 9bbe
00000060: 6f74 49be 1f80 693d 38cd 873d d9ab 943c
00000070: f885 48be a5b5 153e 120f 6dbe 1374 8dbd
00000080: 222e 83be 4d02 89bd 2482 76bd 4c12 0a3c
00000090: 0ffd a3bd ef44 0a3e e925 85be 0b87 1abc
000000a0: c863 03be 0327 25be 15e6 e2bb 74b9 ae3d
000000b0: 7bff e63d 516b ad3d 40d6 783e 34bd 77bd
000000c0: 1949 debc 22c1 c7bd 8704 e4bd 5956 be3d
000000d0: feed fcbc 9cad 14be c8a5 abbe 7d0c 78be
000000e0: 8236 0b3d 6033 433c 0471 3dbd 4a0f 7fbd
000000f0: aa1f c83d 65ee a8bc 3f20 b53c fc88 853c
00000100: ba0a fb3d 4d92 903d 0103 9ebd 3c6f debb
00000110: 7cea f43d e50f a7bd e32e 823c d811 d13d
00000120: 78e9 893e a2dd 85bd e81a 32be 649d 4cbe
00000130: 341b 0d3e 4fe5 20be 8c6b 4bbe 19d1 cc3b
00000140: 54e6 d5bd 7e4d 0d3e 1c02 d8bd e3db a6be
00000150: cfd0 db3c 4a50 e43d 2c90 3b3d c600 083d
00000160: f7b3 11bd a1fd efbd 2c48 53be cfc2 97be
00000170: 6536 14be 7e88 963c 9360 be3d 09f9 393d
00000180: c48c 003e d59c 753e 0800 1bbe 0ed2 18be
00000190: 0199 11be 21b4 573d bae5 bb3d e490 a33c
000001a0: 2838 763b ed0e f6bd 6e9a 74be c942 dfbc
000001b0: 7a9f 853d 756a 433d 07d2 81bd c87d c8bd
000001c0: 4480 87be 01b3 dc3d 3ad1 d0bd e133 8c3d
000001d0: 47d6 03bb 57f1 a33d 71ff 5d3e 93ea 053e
000001e0: 7108 3fbe f06e 40bd 2d20 263e 2c11 9cbe
000001f0: 91b4 c8bd 35c6 13be a045 dabd bf6f 333e
00000200: 953c b3bd 6cca 323e 7977 653e 4922 c43d
00000210: 7424 28be de09 8f3d 2434 47bd 606b 363e
00000220: 1948 7f3d 1bd4 373e 3086 013e 88bf 69be
00000230: ae7b 953d 6bce da3d 74c2 9b3c 5f94 6fbe
00000240: 7dac 56bd 0965 0fbe d17b 363d b7b3 463e
00000250: 613e f13c 1e7f 1f3e ee6c 083e 638c 4bbd
00000260: ffd9 bebd b19d 2cbe cdbb c23e b3c9 273e
00000270: 07ec f33d 4111 acbd e845 013e 47e5 47be
00000280: 1da1 213e bc28 593e c1bd 0dbe bc57 45be
00000290: 3646 c63e 5f62 d9bd 1174 8e3e 5215 7e3c
000002a0: 5d33 eb3d 9301 56bd d998 d83c be5e 86be
000002b0: 2cf0 a3bc 067d 35bd 00b7 9dbd 2162 b23e
000002c0: 23e3 46be 6d29 e93d c174 83be 4c18 00be
000002d0: f5c9 273e 8c92 5ebe cbe3 3ebe 2285 e53d
000002e0: f678 7ebe 3d86 2cbe 2776 7a3d 3aa1 423e
000002f0: d40b 46bc fd8e b93d 9f14 4ebe f137 09bd
00000300: 16ea 3ebe 2d42 153e 5613 79bd 32f8 72be
00000310: 5b7d fbbd 690a d83d 2c81 21be 8b18 1b3e
00000320: 571d 653e 1382 a1bd db42 82be 8cfc 2e3d
00000330: dce2 cb3c a146 2cbd 2009 b13d 3725 3a3e
00000340: 6b7e 443c 0571 8ebe 4f9e 063e 931c 873c
00000350: d7b2 14be 2b29 b6bd 0e57 ba3d 4756 8a3d
00000360: bd38 f43d beaf a23d 4eca 553e da21 503b
00000370: 6582 c73d 4124 083e 9745 52be d25a 30be
00000380: d6e5 6f3d e490 b73e 055d 3dbe 037b 0ebe
00000390: 7d33 4b3d 89c3 0fbe 4993 05be 2d6a 193e
000003a0: 6145 b13c b793 d73d 5a4b aabc f149 4dbe
000003b0: 9248 4c3e a675 92bd 7a29 0f3e f564 6c3e
000003c0: bb89 3f3d eb9e 48bd 25e3 01be f3e5 31be
000003d0: 3658 36be d41d 71be 0549 9c3c ddd2 723e
000003e0: 300c 6a3e 1f29 99bd db4f a63d 1371 d1bb
000003f0: 2ced 14bb fb6b e43c 7076 36bd 78fa 7bbd

rnn.bias_ih_l0 f4 [32]
0.046178807 -0.13296662 -0.060825627 0.13648477 -0.1610662 0.074564226 0.1176373 -0.07511134
0.0017521108 -0.11748131 0.059911072 -0.04222636 -0.11600285 0.14296499 -0.16375491 -0.31502542
0.1951202 0.13966633 0.0053518177 -0.073090315 0.06854554 -0.001991104 0.029366966 -0.07185424
0.117376804 0.10786213 0.1432249 -0.16942906 0.028587274 0.111312434 -0.08074064 0.030246317
00000000: fd25 3d3d 6728 08be 4b24 79bd aac2 0b3e
00000010: 8aee 24be 21b5 983d d3eb f03d f9d3 99bd
00000020: 15a7 e53a 0b9a f0bd 5065 753d 8cf5 2cbd
00000030: e792 edbd 6a65 123e 5eaf 27be 034b a1be
00000040: 97cd 473e b104 0f3e 4d5e af3b 60b0 95bd
00000050: 9b61 8c3d 2f7d 02bb fe92 f03c 5128 93bd
00000060: 4063 f03d d2e6 dc3d 8ca9 123e d07e 2dbe
00000070: dc2f ea3c c6f7 e33d 595b a5bd 20c7 f73c

rnn.bias_hh_l0 f4 [32]
0.09401163 0.07995692 0.1551376 0.105147436 0.10331134 0.12039474 -0.026260782 -0.011711527
-0.026722442 0.13501085 -0.111463875 0.035802186 -0.11422066 0.2209189 -0.1569387 -0.1983179
-0.07759483 0.16959766 -0.0030482288 0.005305459 -0.11967864 0.13810162 -0.19347356 0.073509865
-0.013149788 0.118686125 -0.086754516 -0.08558237 0.023312362 0.18367465 -0.13530186 -0.050409
00000000: 2b89 c03d 74c0 a33d 64dc 1e3e 8a57 d73d
00000010: e594 d33d 8491 f63d da20 d7bc b4e1 3fbc
00000020: 06e9 dabc 4940 0a3e 2c47 e4bd 50a5 123d
00000030: 85ec e9bd 9038 623e 8ab4 20be d913 4bbe
00000040: 0aea 9ebd 02ab 2d3e cbc4 47bb 6ad9 ad3b
00000050: 131a f5bd 836a 0d3e ef1d 46be 578c 963d
00000060: 3572 57bc b611 f33d 5aac b1bd cf45 afbd
00000070: 91f9 be3c 3515 3c3e 928c 0abe ab79 4ebd

rnn.weight_ih_l1 f4 [32, 32]
0.10778463 0.114732824 -0.21175857 0.018528063 -0.062224507 -0.021783663 0.17310703 0.0946045
0.045147747 0.035645578 0.028902143 0.07970625 0.12520787 -0.17592242 -0.13005462 -0.0063373507
-0.41791192 -0.15857905 -0.10109849 0.0541495 0.12714456 -0.13179313 0.10822655 -0.059850305
-0.18066795 0.19285086 0.19725433 -0.19087684 -0.05080307 -0.06748496 -0.13314483 -0.16289252
-0.20357706 -0.03334934 0.3347759 0.18814571 -0.05889026 -0.11715817 -0.06891471 0.05583661
-0.1648603 0.40624347 -0.22698028 0.21906741 0.04260784 0.20409735 0.09392882 0.03516422
0.01747532 0.35479262 -0.33985645 0.2798468 0.21084976 0.1704454 0.13647209 -0.18617482
-0.025882265 0.1771837 0.009879159 -0.049818102 -0.009077015 0.005697539 -0.01006853 0.15134759
0.10482709 0.003340823 0.09933901 0.17952673 -0.24411309 0.1298567 -0.07320787 0.059652362
-0.09026952 -0.12838385 0.008245154 0.06864131 -0.15497205 0.05996775 0.030326143 -0.025739573
0.11784779 0.03750351 0.12435324 -0.14427352 0.032376166 -0.021962011 0.00668163 0.05325819
-0.0065865912 0.090086475 0.007442356 0.23866141 -0.16311288 0.18888915 -0.01411857 -0.18452
0.1307839 -0.02798751 -0.37495238 0.293406 0.14083293 0.12497297 0.25286415 0.039864555
0.14474818 -0.09863638 0.30775598 -0.13123746 -0.18328163 -0.12901708 -0.32087207 -0.0801811
-0.110028766 -0.20274666 -0.17409778 -0.031139508 0.045676753 -0.11103727 0.028390065 0.2653838
0.22604533 -0.3280068 0.15088722 0.1087282 -0.40887246 -0.1486663 0.34445098 -0.31622565
-0.2694997 0.078344576 -0.18898827 -0.24890855 0.15824786 0.04534455 -0.17851122 0.07721144
-0.12871896 -0.2143801 0.107997924 -0.09435805 -0.024155635 -0.13513392 -0.08261595 0.049323436
-0.12763 -0.033002697 -0.09135085 -0.0076574483 0.024481896 0.0963687 0.063225046 0.010863645
-0.010707352 -0.22915745 0.20073676 0.03857796 -0.015540447 0.04952448 -0.121123984 -0.038132723
-0.12546301 -0.3584092 0.28077665 0.3279384 0.14735281 0.21046966 -0.17348859 0.18136962
0.49646652 -0.1503309 -0.083322056 -0.17989856 -0.3087839 0.30605045 -0.47749093 -0.35424194
0.4518033 -0.037340797 -0.057966888 -0.0071896664 0.3353094 0.13352887 0.20754313 0.10815339
-0.21211183 -0.08845996 -0.019901412 -0.061345004 -0.25212353 0.4114494 0.15789631 0.004144892
0.066551305 -0.07337799 0.038062297 0.105582654 0.07096476 -0.07811188 0.061636128 -0.23472776
-0.25637057 0.18618464 -0.082545854 -0.11840802 -0.13389702 0.11921007 0.03808557 -0.0479931
0.10656822 0.31797647 0.21851832 0.08443388 -0.18358566 -0.042532403 -0.35046044 -0.07277516
0.17653117 0.3697764 -0.080240555 0.014983619 -0.20962057 0.13435037 -0.13611329 0.27164328
-0.3143141 0.2332376 -0.031929247 -0.12106648 0.052272756 -0.061529737 0.07172559 0.34173018
0.39422002 0.16686647 -0.29001588 0.05212304 0.14290915 -0.048514728 -0.0881842 -0.0060451245
0.35331967 0.6343078 -0.037509836 -0.10217436 -0.008878443 -0.16478845 0.00146153 0.2876727
0.03554758 -0.03985331 0.028939495 -0.26194638 0.24829505 -0.26240858 -0.48871946 -0.21232753
00000000: 30be dc3d 0bf9 ea3d 3dd7 58be 2ac8 973c
00000010: 20df 7ebd a773 b2bc f842 313e 01c0 c13d
00000020: d8ec 383d 1901 123d 30c4 ec3c 083d a33d
00000030: 7e36 003e 0225 34be 0a2d 05be 8da9 cfbb
00000040: 8df8 d5be 8c62 22be ba0c cfbd decb 5d3d
00000050: 2f32 023e c7f4 06be e2a5 dd3d 9825 75bd
00000060: 0501 39be b27a 453e 0afd 493e 3875 43be
00000070: e116 50bd 8e35 8abd 1e57 08be 4ccd 26be
00000080: 8176 50be 5199 08bd bf67 ab3e 45a9 403e
00000090: ea36 71bd 9ff0 efbd 2823 8dbd eeb4 643d
000000a0: 23d1 28be 25ff cf3e 856d 68be 3553 603e
000000b0: 8f85 2e3d e5fe 503e c15d c03d 5b08 103d
000000c0: 6728 8f3c 61a7 b53e aa01 aebe 1448 8f3e
000000d0: 00e9 573e 3d89 2e3e 57bf 0b3e 9da4 3ebe
000000e0: 0b07 d4bc a56f 353e 32dc 213c 110e 4cbd
000000f0: c3b7 14bc 6cb2 ba3b 7af6 24bc ddfa 1a3e
00000100: 96af d63d b6f1 5a3b 4072 cb3d dbd5 373e
00000110: c8f8 79be 28f9 043e 02ee 95bd 0956 743d
00000120: 3adf b8bd 0e77 03be af16 073c d193 8c3d
00000130: feb0 1ebe bea0 753d 886e f83c ccdb d2bc
00000140: 2f5a f13d 489d 193d e9ac fe3d 70bc 13be
00000150: df9c 043d ade9 b3bc 93f1 da3b 4325 5a3d
00000160: 55d4 d7bb 427f b83d 02df f33b a863 743e
00000170: 1007 27be 286c 413e 9351 67bc d0f2 3cbe
00000180: 37ec 053e 1046 e5bc c2f9 bfbe 5039 963e
00000190: 8236 103e d4f1 ff3d 6977 813e 0449 233d
000001a0: de38 143e df01 cabd 3192 9d3e 1d63 06be
000001b0: 2eae 3bbe 0e1d 04be 5849 a4be fd35 a4bd
000001c0: c356 e1bd d29c 4fbe b046 32be 4818 ffbc
000001d0: 8c17 3b3d 8267 e3bd 4892 e83c 63e0 873e
000001e0: 6d78 673e 82f0 a7be 2e82 1a3e e4ac de3d
000001f0: bb57 d1be fb3b 18be e15b b03e 54e8 a1be
00000200: ddfb 89be 1f73 a03d 2486 41be e2e1 7ebe
00000210: ba0b 223e 35bb 393d a5cb 36be 0821 9e3d
00000220: e7ce 03be 7586 5bbe 042e dd3d cb3e c1bd
00000230: 0ae2 c5bc 8c60 0abe 8d32 a9bd 5f07 4a3d
00000240: 70b1 02be d62d 07bd 2816 bbbd 55eb fabb
00000250: 428e c83c f45c c53d 227c 813d 6efd 313c
00000260: e46d 2fbc 40a8 6abe f08d 4d3e ec03 1e3d
00000270: 5c9d 7ebc 2eda 4a3d da0f f8bd 0f31 1cbd
00000280: 6079 00be 6981 b7be f5c1 8f3e 8be7 a73e
00000290: a8e3 163e 5c85 573e fea6 31be f5b8 393e
000002a0: dc30 fe3e 58f0 19be c1a4 aabd 5437 38be
000002b0: ec18 9ebe a5b2 9c3e b179 f4be 335f b5be
000002c0: c352 e73e aaf2 18bd b06e 6dbd 4b97 ebbb
000002d0: acad ab3e cbbb 083e 3086 543e 867f dd3d
000002e0: d833 59be 7f2a b5bd 4908 a3bc e644 7bbd
000002f0: 5616 81be 7fa9 d23e 92af 213e e0d1 873b
00000300: 0d4c 883d 3347 96bd 36e7 1b3d b83b d83d
00000310: f955 913d 1ff9 9fbd 2a76 7c3d 795c 70be
00000320: 0143 83be 30a7 3e3e cd0d a9bd e77f f2bd
00000330: 4d1c 09be 6924 f43d 9dff 1b3d 6a94 44bd
00000340: 7040 da3d d0cd a23e 44c3 5f3e aceb ac3d
00000350: e1fd 3bbe 7536 2ebd 8d6f b3be 250b 95bd
00000360: 96c4 343e 5553 bd3e 2955 a4bd da7d 753c
00000370: c6a6 56be 2593 093e 4861 0bbe d414 8b3e
00000380: c7ed a0be d6d5 6e3e 3ec8 02bd b4f1 f7bd
00000390: f51b 563d 9b06 7cbd dee4 923d 42f7 ae3e
000003a0: 35d7 c93e 0bdf 2a3e f67c 94be f87e 553d
000003b0: c756 123e 61b7 46bd eb99 b4bd 2e16 c6bb
000003c0: 51e6 b43e ff61 223f eaa3 19bd ca40 d1bd
000003d0: e476 11bc 4ebe 28be cf90 bf3a d649 933e
000003e0: 579a 113d 393d 23bd 8512 ed3c d61d 86be
000003f0: 0f41 7e3e 6b5a 86be 7039 fabe 636c 59be

rnn.weight_hh_l1 f4 [32, 32]
-0.23941809 0.003648797 -0.2608365 -0.1453924 0.00523998 -0.08939398 0.08044638 -0.12560797
0.16191298 -0.1600424 -0.2403749 0.38366154 -0.20134424 0.13291632 -0.28833142 -0.18053393
-0.03090687 0.32664582 0.2089291 -0.04866642 -0.15740064 0.18439403 0.3844697 -0.13988566
-0.11229742 -0.055475492 -0.09756862 -0.27015337 -0.4216511 -0.36349356 0.03584964 -0.042986732
-0.03370716 -0.11108732 0.1528627 -0.31243256 0.020369843 0.067809604 0.19950894 -0.061920658
-0.22486301 0.16073726 0.12634912 -0.102244705 0.020190563 -0.072638385 0.11326645 -0.018391648
0.07113596 -0.10120794 0.1518188 -0.48201784 -0.23661046 -0.114569746 -0.17369668 0.210181
-0.14855893 0.02356029 0.037444662 -0.3230238 0.38531193 -0.014974847 -0.20131548 0.075168505
0.09362367 0.23801354 -0.24056138 0.32463866 0.2520648 0.0237312 -0.12229237 0.009859298
-0.110285915 -0.23384976 -0.19390108 0.041852728 -0.23522273 0.14762726 0.120698966 0.068115674
-0.16169989 0.033739187 -0.077297226 0.40499395 0.066396974 0.07130556 0.10347501 -0.045092724
0.12197193 0.07061448 -0.04639374 0.1593229 -0.07066182 0.19924644 -0.19708018 -0.11039479
-0.11507267 0.023448579 -0.27493528 -0.1468622 -0.00023574731 -0.43541977 -0.11045043 0.11131826
-0.16705492 0.1995557 -0.07663337 -0.0034595407 -0.24647886 0.093196265 -0.26440093 -0.35643283
-0.16121389 -0.10918821 0.16954806 -0.13521904 -0.08891297 0.2984338 0.23296985 -0.16774486
0.044402678 0.087349825 -0.15969513 0.160037 -0.12910266 -0.3738546 0.15203549 -0.036543995
-0.18024378 0.04956123 0.18088235 0.092107825 0.22507593 0.18989405 -0.076611646 0.14742063
-0.094388776 -0.1488293 -0.0011394743 0.036096193 0.22480193 0.20395671 -0.10861461 -0.030886132
-0.03028702 0.15414041 0.00418824 0.08499352 -0.21654922 0.2770052 0.10435192 -0.12430865
-0.014687149 -0.050624374 0.0026825478 0.13193627 -0.1851075 -0.04996359 -0.37284786 -0.11196207
0.38092884 -0.27767503 0.15626533 0.27381966 0.23769438 -0.14715044 -0.23533003 0.039834708
-0.37952724 -0.3264004 0.005783574 -0.12666033 -0.2732656 -0.1054813 0.40234095 0.11715796
0.11525421 -0.20361722 0.10456115 0.1958321 0.1997504 -0.19169171 -0.4618404 0.18918078
0.16073331 0.16258357 0.24611644 0.059339173 0.26617488 -0.51383615 0.48888832 0.055625226
0.01318785 -0.09932184 -0.052786957 0.073317565 -0.25314233 0.2684009 0.1922079 -0.27568632
-0.1453141 -0.22815035 0.07897849 -0.1644404 -0.22375189 -0.27754772 0.29347074 0.2088451
0.30759296 -0.080828495 -0.09679686 -0.20487157 -0.054104045 -0.29162726 -0.30360445 0.12989944
0.0744288 -0.020519663 0.09580662 0.030667797 0.374517 -0.14552045 0.12461896 -0.22323681
-0.071615346 0.21715453 0.3209598 -0.037950847 -0.18617047 0.3778362 0.20522186 -0.19893616
-0.21375884 -0.22823964 0.43856165 -0.24020842 0.20149444 0.097793095 -0.27072662 0.06745398
-0.11061182 0.06496659 -0.16386373 -0.17618552 -0.086550005 0.15241458 0.029576464 0.12828682
0.34884074 -0.09646902 0.2017877 -0.06985304 0.109955885 0.056504324 -0.40726376 0.14382513
00000000: 042a 75be a820 6f3b 5d8c 85be bfe1 14be
00000010: 23b4 ab3b 3114 b7bd 12c1 a43d 609f 00be
00000020: 84cc 253e 28e2 23be d624 76be 496f c43e
00000030: 2f2d 4ebe 371b 083e 2da0 93be e3dd 38be
00000040: 6730 fdbc 1f3e a73e 83f1 553e 7156 47bd
00000050: a22d 21be cad1 3c3e 36d9 c43e 303e 0fbe
00000060: 31fc e5bd 453a 63bd 0fd2 c7bd 8b51 8abe
00000070: a7e2 d7be d41b babe 12d7 123d db12 30bd
00000080: 8510 0abd c081 e3bd 0a88 1c3e 29f7 9fbe
00000090: a8de a63c c3df 8a3d 124c 4c3e 84a0 7dbd
000000a0: 7d42 66be 4f98 243e aa61 013e ac65 d1bd
000000b0: ae66 a53c 6fc3 94bd 3ef8 e73d 15aa 96bc
000000c0: bbaf 913d 1c46 cfbd 6376 1b3e 0bcb f6be
000000d0: 034a 72be 8ba3 eabd 8bdd 31be b039 573e
000000e0: d51f 18be 8201 c13c 935f 193d 6063 a5be
000000f0: 9b47 c53e 1059 75bc a525 4ebe f2f1 993d
00000100: c4bd bf3d d2b9 733e b955 76be 0a37 a63e
00000110: a30e 813e ef67 c23c 6c74 fabd e588 213c
00000120: 95dd e1bd 5076 6fbe 018e 46be c46d 2b3d
00000130: 3ade 70be 9a2b 173e 0531 f73d 3b80 8b3d
00000140: a894 25be 1a32 0a3d 024e 9ebd 5e5b cf3e
00000150: 23fb 873d a608 923d b5ea d33d 26b3 38bd
00000160: 6bcc f93d 539e 903d 5d07 3ebd 8b25 233e
00000170: 25b7 90bd 4207 4c3e 63cf 49be aa16 e2bd
00000180: 38ab ebbd 3c17 c03c 51c4 8cbe 0b63 16be
00000190: f032 77b9 57ef debe d633 e2bd d4fa e33d
000001a0: 7210 2bbe 5458 4c3e f5f1 9cbd 76b9 62bb
000001b0: f464 7cbe afdd be3d 8f5f 87be 5d7e b6be
000001c0: 4115 25be 119e dfbd 029e 2d3e dc76 0abe
000001d0: 0118 b6bd 51cc 983e a68f 6e3e 4fc5 2bbe
000001e0: 95df 353d 77e4 b23d 1f87 23be bde0 233e
000001f0: 7d33 04be df69 bfbe 31af 1b3e 28af 15bd
00000200: d391 38be b700 4b3d 3939 393e 07a3 bc3d
00000210: 4e7a 663e 9673 423e 91e6 9cbd 6ff5 163e
00000220: e74e c1bd b566 18be 6a5a 95ba 9ad9 133d
00000230: 7a32 663e 07da 503e 5671 debd ea04 fdbc
00000240: 7c1c f8bc fcd6 1d3e 813d 893b 1511 ae3d
00000250: 14bf 5dbe a0d3 8d3e 76b6 d53d 8995 febd
00000260: 5ea2 70bc 815b 4fbd afcd 2f3b 4d1a 073e
00000270: d28c 3dbe 9fa6 4cbd eae5 bebe 5f4c e5bd
00000280: 1b09 c33e 6c2b 8ebe 0504 203e 1732 8c3e
00000290: 2866 733e 9bae 16be 5bfa 70be b829 233d
000002a0: 6551 c2be f41d a7be 2384 bd3b 3fb3 01be
000002b0: 78e9 8bbe 9406 d8bd a2ff cd3e 83f0 ef3d
000002c0: 660a ec3d 0881 50be 2824 d63d 3688 483e
000002d0: 5e8b 4c3e d54a 44be 5876 ecbe 9bb8 413e
000002e0: 4697 243e 4f7c 263e f305 7c3e a20d 733d
000002f0: 1348 883e c48a 03bf 924f fa3e 47d7 633d
00000300: da11 583c 4069 cbbd 2337 58bd 8527 963d
00000310: df9b 81be d86b 893e 26d2 443e c226 8dbe
00000320: 38cd 14be 3fa0 69be 79bf a13d 1063 28be
00000330: 371f 65be bc1a 8ebe cc41 963e 7ddb 553e
00000340: d37c 9d3e 6989 a5bd 6f3d c6bd dac9 51be
00000350: 349c 5dbd 2b50 95be 0b72 9bbe 5c04 053e
00000360: 206e 983d da18 a8bc 4336 c43d 083b fb3c
00000370: b1c0 bf3e 5003 15be 3a38 ff3d 3198 64be
00000380: 11ab 92bd c25d 5e3e d854 a43e 5972 1bbd
00000390: 79a3 3ebe bf73 c13e ae25 523e ecb5 4bbe
000003a0: 99e3 5abe a7b7 69be 278b e03e 32f9 75be
000003b0: 8f54 4e3e bf47 c83d ae9c 8abe 5025 8a3d
000003c0: 7388 e2bd 340d 853d e5cb 27be fa69 34be
000003d0: 2141 b1bd 9112 1c3e 574a f23c 9f5d 033e
000003e0: 419b b23e 8d91 c5bd 6fa1 4e3e 1c0f 8fbd
000003f0: 8d30 e13d 1471 673d e084 d0be e546 133e

rnn.bias_ih_l1 f4 [32]
0.022702057 0.0064032534 -0.09508965 -0.00039691787 -0.0348625 0.02263671 0.027304538 0.030902097
0.25621453 -0.18086459 -0.05094614 -0.026719153 -0.111746974 -0.042689923 -0.00049467286 0.077829
0.00830907 -0.14942901 -0.035336632 0.10621459 -0.11780963 0.022860046 -0.12007542 0.050575554
0.19295692 0.09010854 -0.12703261 -0.015812336 -0.107331425 0.058526006 0.014200036 -0.13240479
00000000: aaf9 b93c 62d2 d13b 5dbe c2bd 6a19 d0b9
00000010: fbcb 0ebd 9f70 b93c c4ad df3c 6526 fd3c
00000020: 8d2e 833e 9134 39be e6ac 50bd 20e2 dabc
00000030: 99db e4bd a1db 2ebd efac 01ba d064 9f3d
00000040: c422 083c eb03 19be 25bd 10bd 0987 d93d
00000050: 2d46 f1bd fe44 bb3c 1aea f5bd 5028 4f3d
00000060: 8096 453e d48a b83d d614 02be df88 81bc
00000070: 94d0 dbbd f7b8 6f3d 45a7 683c 1f95 07be

rnn.bias_hh_l1 f4 [32]
-0.056789394 -0.11333463 -0.052662894 -0.070259765 0.006240058 -0.025451371 -0.15485859 0.24370773
-0.038579352 0.13772276 -0.04517578 0.07136897 0.018534075 0.12768318 0.10609134 0.050100215
0.14817813 -0.04106538 0.042061854 0.17519629 -0.23451866 -0.17259085 -0.18396251 0.20236519
0.18141092 0.08661724 0.15905368 -0.036123108 -0.05512158 -0.15257171 -0.034131147 -0.022662451
00000000: ff9b 68bd fd1b e8bd 0cb5 57bd 5ae4 8fbd
00000010: 6779 cc3b 657f d0bc 4093 1ebe 858e 793e
00000020: 6205 1ebd 3207 0d3e 3d0a 39bd e529 923d
00000030: c6d4 973c 61bf 023e 6b46 d93d e235 4d3d
00000040: 02bc 173e 2c34 28bd 0d49 2c3d a866 333e
00000050: a925 70be a8bb 30be ab60 3cbe d238 4f3e
00000060: c9c3 393e 6164 b13d f8de 223e d3f5 13bd
00000070: 2ac7 61bd c23b 1cbe 1acd 0bbd 9ba6 b9bc

fc.weight f4 [2, 32]
0.15980206 0.68222153 -0.35712653 -0.2619253 0.33519652 -0.25292078 0.057963215 0.23304681
0.16314138 0.28114322 0.24739754 -0.36460796 0.49767983 -1.0114883 -0.5919375 -0.09346235
-1.201921 -0.61238587 0.88495207 0.56965685 0.16300566 0.08449082 -0.019561855 -0.7455875
0.028390529 -1.2642537 -0.5564775 0.21601108 0.29477125 0.55781275 -0.71404445 -0.80496144
-0.3072155 -0.77560216 0.18171047 0.358751 -0.16970627 0.16041616 -0.17672817 -0.24306047
-0.07462498 -0.13068639 -0.33151746 0.12887482 -0.25919968 0.986682 0.3982305 0.10038952
1.1267536 0.33898902 -0.9258019 -0.43515706 -0.476372 -0.29995674 -0.1811506 0.7149816
-0.02520662 1.3192346 0.6043911 -0.24880606 -0.12503916 -0.6415627 0.72301656 0.73029923
00000000: 27a3 233e 12a6 2e3f 4ad9 b6be 131b 86be
00000010: e19e ab3e d57e 81be d66a 6d3d d3a3 6e3e
00000020: 890e 273e 01f2 8f3e c855 7d3e e5ad babe
00000030: e4cf fe3e 7378 81bf 3789 17bf 3069 bfbd
00000040: 8cd8 99bf 52c5 1cbf 388c 623f 08d5 113f
00000050: f5ea 263e 8609 ad3d 2f40 a0bc d3de 3ebf
00000060: 4193 e83c 11d3 a1bf 4f75 0ebf 0232 5d3e
00000070: 42ec 963e d1cc 0e3f 9ecb 36bf f411 4ebf
00000080: 5a4b 9dbe dd8d 46bf 4f12 3a3e 36ae b73e
00000090: 7bc7 2dbe 2244 243e 3bf8 34be d8e4 78be
000000a0: fbd4 98bd a7d2 05be a8bc a9be c3f7 033e
000000b0: d2b5 84be 3197 7c3f dee4 cb3e 0599 cd3d
000000c0: 7639 903f f88f ad3e 5a01 6dbf e8cc debe
000000d0: 08e7 f3be ee93 99be 8b7f 39be 0909 373f
000000e0: 1d7e cebc aedc a83f 60b9 1a3f 04c7 7ebe
000000f0: 440a 00be 743d 24bf 9d17 393f e4f4 3a3f

fc.bias f4 [2]
-0.052122056 -0.047119793
00000000: f07d 55bd af00 41bd
